ml/models/shoulder_lstm_model.pt (torch, 593823 bytes, 19 tensors)

lstm.weight_ih_l0 f4 [256, 18]
00000000: 03b0 853b 55c9 c73d 0a65 0ebd fdd5 b8bd
00000010: 33f8 453e 66b3 22bd d8a3 4a3d 34a4 35bd
00000020: 1436 11bd 06a6 10bd a4ab bc3d 4407 5d3e
00000030: 8403 09be cdbc a43d 9cad fe3d 60d4 65bd
00000040: b594 84bd 32e2 4abd f972 51bd 2ab4 d33d
00000050: 2292 93bd 5e08 3b3d 668a 1b39 7a88 b5bd
00000060: 0c09 c33d 346a 313d 3aa6 ab3d b7f2 123c
00000070: 6e93 913d 36d0 2c3d 26e2 923c a72a 943b
00000080: 736d 923d e80e 83bc e2d8 0fbe 22b6 36be
00000090: e792 02be bd62 a5bd c614 09bc 55af e7bd
000000a0: 7a83 113e c0a5 db3c 88ab a0bd 9805 4b3d
000000b0: c084 aa3c f7ca 6e3d 8b2a 0b3d a505 09bd
000000c0: 21be 02be c120 9e3c 09e8 eabd c4d9 53bd
000000d0: 1832 39bd 2e28 f33d 93c7 4ebd 72d0 0cbd
000000e0: 2b20 b1bd 3339 f93c f671 a4bd f599 6abe
000000f0: aafa 81bd 6860 c0bc 14c9 093d d839 023d
00000100: 404f 523c f114 90bc 32fc ba3c 2b16 a13c
00000110: c96c ecbd f0c7 9e3d fe08 3cbd 38cb 06bc
00000120: 00f7 2c3d e717 b13d 3db8 a43d c9c3 0bbe
00000130: d4ba 3ebd ce5c 323e d837 cd3d 2a6d ca3d
00000140: c036 7c3c 1bf3 ecbc 105a f3bc b9fb cbbd
00000150: 8d81 0dbd 7400 f8bd 90c4 96bc 4bf7 143d
00000160: 4a78 13bc ff96 723c f68a 0cbe 2654 aa3d
00000170: ae2c 1a3e 3e28 823d ec08 193e 04cd b43d
00000180: 86d6 dfbd 804b a6bc 6edc bebd e5a9 143d
00000190: 5409 973d fed5 bc3d 8650 813b 107a babc
000001a0: 68c4 513c 323e ffbd 8d86 dbbd 76d7 c4bb
000001b0: 7741 8c3c 0d82 6d3d 31f0 af3d c454 b5bd
000001c0: accd 303c 118c 38be 1006 cbbd a2cd a13d
000001d0: 9093 d53d fa37 a93d 1107 bfbd dddf 04bc
000001e0: 6237 33bd 69b0 803b 537c 49ba e55b d83d
000001f0: de82 debd 932e d43d 97c6 a43c 37a4 683c
00000200: c307 06bd d7bb a23d a0d3 2dbd 44d0 a63d
00000210: bc6b 73bd 88d5 86bd 86fb bfbd bc63 173e
00000220: 178d 86bd e494 5dbc 3fb7 373e 7c60 d8bd
00000230: 5066 c1bc 10d3 8d3d 9aaa b23c 782c bcbd
00000240: 9d8a 893c 383a 24be d56d 10bd c7fb b63d
00000250: ddeb 03bd 28ec 113e 22e2 a13d b480 60bd
00000260: 9cc4 cf3d 614c 263e 832d 83bc 55f4 9cbc
00000270: 8768 853c 7066 113e e773 b5b9 754d 0c3e
00000280: dd89 03be dcba 4bbe 2c49 3a3c 1473 9bbd
00000290: efda 1cbc 4fb7 603d 39e5 973d 70e3 80be
000002a0: 5e91 823d 0415 4e3d dc7a 7dbd c304 02bd
000002b0: 82a2 2ebd 9b32 1abd 48d5 f0bc 23c7 fd3c
000002c0: a783 1e3d 9c5f 623d a181 2b3d 1fac f23d
000002d0: c7e7 6fbd 047f 2e3d bb01 cbbd 4f21 03bd
000002e0: b0e3 3f3e 36eb 82bd 607e 27bc f034 c9bd
000002f0: b475 ecbd 2ec6 193e 7e36 00be 4b48 1c3e
00000300: c480 3bbb 1cd2 03be 81b5 29bc 45ce eebd
00000310: d4ad 233d 2ff7 8ebc fc9a 76bd 9313 f23d
00000320: dbe9 07bd 88b7 1fbe 32cd 0cbb 9a13 033e
00000330: 5477 bebd ee2e cf3d 4672 c0bd b569 81bd
00000340: 8944 a8bd 82ce 6abc 2c0a 9fbd 13df 97bd
00000350: c889 cdbd f297 f0bd 3734 9d3d d875 433c
00000360: 4bcb 593d a112 df3c 20d0 ec3d a332 7a3d
00000370: 02f6 563e c306 18be b0a7 f53c 10dc 15bc
00000380: 7455 aa3d e141 e53d ebc9 32bd 39be 613d
00000390: 6ca1 473d af18 373d 1aa1 b03d b5f6 b3bd
000003a0: 52da c83d 2766 02be bbe0 063e 3d81 b8bd
000003b0: a15e 0fbe 1d41 71bd c6e6 2e3d aadb 963d
000003c0: 04bb 2fbd 003a b9bc f6bd cebd 6c6b 813d
000003d0: 3b76 96bd 037f 663d 3585 70bd 6961 0cbd
000003e0: 5b0f bd3d 9de6 873d f1c6 003d a59d 84ba
000003f0: 85bc 9d3d 04e9 463b 9940 d33d ca20 fdbd
0.00407982 0.09755198 -0.034764327 -0.0902519 0.19332962 -0.03972187 0.04947266 -0.04434605
-0.035451964 -0.035314582 0.09212425 0.21584803 -0.13380247 0.080438234 0.12435457 -0.05611074
-0.06473676 -0.049532123 -0.051135037 0.10337098 -0.07205607 0.045662276 0.0001483351 -0.088639215
0.0952321 0.043314174 0.083813146 0.008969001 0.07108198 0.042190753 0.017930102 0.004521686
0.07149782 -0.015998319 -0.14047578 -0.17842916 -0.12751351 -0.080754735 -0.008366769 -0.11312739
0.1421031 0.026812434 -0.07845217 0.04956588 0.020815253 0.05829903 0.03397612 -0.03345265
-0.12767841 0.019302728 -0.114700384 -0.05172135 -0.04521379 0.11872898 -0.050483298 -0.034378476
-0.08648714 0.030422783 -0.08029549 -0.22910292 -0.063466385 -0.02348347 0.03363903 0.031793445
0.0128362775 -0.01758811 0.022825334 0.01966389 -0.115441866 0.07752979 -0.045907013 -0.008227162
0.042227745 0.08647137 0.08042953 -0.13648905 -0.046564892 0.17418215 0.10020417 0.09884103
0.015393913 -0.028924515 -0.029706031 -0.09960122 -0.034547377 -0.121094614 -0.018404275 0.03636865
-0.009000847 0.014806508 -0.13724884 0.08316831 0.15056106 0.06355332 0.1494481 0.08828166
-0.10929589 -0.020299673 -0.093193874 0.036294837 0.07374826 0.09220503 0.0039463667 -0.022763282
0.012803175 -0.12463035 -0.10719023 -0.0060071303 0.01712106 0.057985354 0.08590735 -0.088540584
0.0107912235 -0.18022181 -0.09913266 0.079005495 0.10428536 0.0826263 -0.0932752 -0.008110014
-0.04375399 0.0039272797 -0.0007686067 0.105644025 -0.10864805 0.10360446 0.020114226 0.014199308
-0.032722246 0.07945984 -0.04243815 0.08145192 -0.059428915 -0.065836966 -0.09374146 0.1478414
-0.065698795 -0.013524268 0.17940997 -0.10565278 -0.023608357 0.069250226 0.021809865 -0.09188169
0.016789729 -0.16037834 -0.035260994 0.089347415 -0.03220736 0.14250243 0.079044595 -0.05481024
0.10144922 0.16240074 -0.016012913 -0.019159475 0.016285194 0.14199233 -0.00034609364 0.13701423
-0.1284556 -0.198955 0.011369985 -0.07590309 -0.009573682 0.054862317 0.074167676 -0.2517352
0.06375383 0.05031301 -0.061884746 -0.031742822 -0.04263545 -0.037645917 -0.029398575 0.030978745
0.038699772 0.05526696 0.04187167 0.11849236 -0.05857065 0.0426016 -0.099124394 -0.032014187
0.187392 -0.06392519 -0.010223001 -0.0982455 -0.115458876 0.15017006 -0.12520787 0.15261953
-0.0028610686 -0.12873119 -0.010358215 -0.116604365 0.039960697 -0.01745185 -0.0602064 0.1182014
-0.033182006 -0.15597355 -0.002148461 0.12800446 -0.09300104 0.10116373 -0.09396796 -0.0631899
-0.08216197 -0.014331462 -0.07765612 -0.07415595 -0.10036045 -0.11747731 0.07675975 0.011929952
0.05317239 0.027230563 0.11563134 0.061083447 0.20992282 -0.1484633 0.029987186 -0.009146705
0.0831708 0.11194206 -0.043649595 0.05511305 0.04873793 0.044701274 0.08624478 -0.0878729
0.09807266 -0.1273428 0.13171665 -0.09009025 -0.14000942 -0.058899987 0.04270055 0.07366116
-0.04290296 -0.022610664 -0.10094826 0.06319317 -0.073467694 0.05627347 -0.058720786 -0.034272585
0.092314444 0.06635783 0.031439725 -0.0010117783 0.07701973 0.003035129 0.103150554 -0.1235977

lstm.weight_hh_l0 f4 [256, 64]
00000000: a74b cebd 09f1 333d f867 e7bb b4dd d53c
00000010: 2e94 c83d dd38 d93d a68a 883c e63c ae3d
00000020: 3610 92bd b556 e53c 96d7 22bd d21c 073e
00000030: 5ea6 993d 3d69 afbb 56e5 653d e506 1c3d
00000040: 7487 9dbd d336 6dbd e565 c9bd 9bf4 f3bd
00000050: c39f 363d c159 dfbb 28d2 8bbc f0af 043e
00000060: 3b56 32bd 8532 b4bc 980b fabc b4dc 903a
00000070: 879b 62bd 40a6 05bd 2706 03be a0c7 d03d
00000080: d108 d1bd e098 c9bd f314 a43d 6339 8d3d
00000090: c967 27bd 0ce0 aabd d1bc c13d 8573 c7bc
000000a0: 6325 0c3d ebd9 51bd ca21 d03d 0548 b33d
000000b0: d4dd 723d ca0f cebd f0b5 123d 7fdd c03c
000000c0: 75ee d7bc 7db2 133e 8eca 4ebd 2766 6fbd
000000d0: b9bb b2bd 8aa1 973d 7915 f9bd 72c1 873d
000000e0: 4cad af3d 657c 9cbd 78b5 853d 291a c83d
000000f0: d246 cdbd 15cc 9e3d 56d0 233b 12d3 9bbd
00000100: 6e48 03bd 6739 1a3c 5b84 cf3d 58a6 c0bd
00000110: 6fbb 863c 0e96 34bd 1172 86bd a10c e5bd
00000120: c86d 263d 434c 19bd ec73 613d f223 573b
00000130: 0589 4e3d c4df 94bd e49d 0e3e aa89 35bd
00000140: 7ff8 1dbe 0ccc dcbd 9a9e 14be 6f74 4f3d
00000150: 15a9 113e e411 a33c 649d bfbd 4e97 693d
00000160: 9bc8 673d 932f af3d 2b0c 143d 8e43 1d3d
00000170: 8cef 1f3d 6bb9 cf3c 0e7e 0d3e fbcf ccbd
00000180: 32e0 8dbd 82f8 14be 1e47 cabc 4c74 cabd
00000190: 5780 cb3d 7713 17be 973a 0c3e 97db 4d3d
000001a0: 1313 8cbd c2bf 06be 592c dcbc 5658 c43c
000001b0: 918a bc3b 9c2d e53d 219a 9e3d 0585 243e
000001c0: cf0d aa3d efa3 423d 032e 0a3d 9b86 ddbd
000001d0: 6d1e bf3c f81f edbb 751b 6a3c ada0 b73c
000001e0: 2e8c 1dbe 6978 b8bd ee18 c13c 580a f2bc
000001f0: 2ac9 5a3e 31a0 873d 6ce3 763a 5991 20be
00000200: b8f9 7cbd 2aa8 2abd 660f 693d aa7a 62bc
00000210: 7751 49bd 0f6e 653c 34d0 05be ca65 e3bc
00000220: afa0 77bd ca71 d1bc 4259 473c 2df2 1a3c
00000230: 619f 6d3c ee4e 3f3e 198f 77bd e4e6 c63b
00000240: 3159 f83c 305d 1b3e 5700 0ebe e7b1 edbd
00000250: aa96 febd d6cc 15be 65d5 a33d edc0 21be
00000260: a58e f53b 347b f53c b4a5 28bd c455 763d
00000270: 8d23 e53c f235 27be e596 aa3d d1d4 f2bc
00000280: b3f9 b2bd 8e8f 8bbd ca3e 85bd 1671 ccbd
00000290: 78ba ffbd d17a 2bbb 3a31 8dbd ecb6 cabd
000002a0: e1f4 15bd 7404 14be b867 b8bd 0041 153e
000002b0: 0ee2 c43c a29e 4abd 0a93 d9bc 17d5 6ebd
000002c0: f16f a03d 6b73 143e d17f a5bd 5d8f c23c
000002d0: 65f6 d53d 0a54 0cbc b2d6 50bd cfbe 113d
000002e0: 9722 393e 4c6f a3ba b47b 7d3d ef26 133c
000002f0: 4782 e73d 3766 7abd b498 553c f3fd da3c
00000300: 2091 513d a9c8 e1ba 751f cc39 84a5 3ebc
00000310: 62f8 323e 8999 da3c 144f fe3c f251 15be
00000320: 9c69 0cbe 67e4 f23d 382d 363e 05a6 c5bd
00000330: 7430 113e 2e0c 1dbe 384c 4c3e 412e fb3c
00000340: 8137 88bd 64f5 5cbd 337b 69bd 00c5 b83d
00000350: 2890 5d3d d694 f33d 0abf 01be 73b1 cd3d
00000360: e511 9b3b 5a0c 6a3e db4c bdbd 81f3 26be
00000370: f946 e8bd 0f83 473d 8621 80bd 50d3 e5bd
00000380: 6633 713c e27b 4bbc b6e4 463e 2526 8b3e
00000390: 9922 073e 6dc5 05be 6cd7 363e f19c 49bd
000003a0: 2e94 91bd 626c 09bd d740 0fbe 2613 79bd
000003b0: 9339 c93d b6a3 dd3c f15b dbbc 22b9 bd3d
000003c0: 9958 02bb 8ab9 b73d 1b1e ecbc 3847 18bc
000003d0: 9250 94bd 65b7 52be cbd8 273d 676f 88bd
000003e0: efe6 a1bc cead 733c c5dd 31be efc0 e53b
000003f0: 700c 853d 26c7 823c e615 59be e2b7 1f3e
-0.10073023 0.04393104 -0.0070619546 0.026106693 0.09793888 0.10606549 0.016667675 0.08507709
-0.07131998 0.027995447 -0.03975638 0.13194588 0.07502435 -0.0053531216 0.056126915 0.038092513
-0.07691851 -0.057913613 -0.09833888 -0.11911889 0.044585954 -0.0068161194 -0.017067984 0.1295774
-0.043539267 -0.021996746 -0.030523106 0.0011052103 -0.055324104 -0.03262925 -0.12795316 0.101943254
-0.1020676 -0.09843612 0.08011808 0.06895711 -0.04087046 -0.08343515 0.09459842 -0.024347076
0.034215342 -0.051233213 0.10162695 0.08753971 0.059293583 -0.10061605 0.03581804 0.023543118
-0.026358822 0.14423557 -0.05048614 -0.05844703 -0.087272115 0.07403858 -0.12162299 0.06628694
0.08577976 -0.07640914 0.06528753 0.09770615 -0.100232735 0.07753769 0.0024996004 -0.07608618
-0.032051496 0.0094131 0.10132667 -0.094067276 0.016446797 -0.044088416 -0.06564725 -0.111840494
0.04063204 -0.037426244 0.055042192 0.0032827822 0.05042364 -0.072692424 0.13927418 -0.04432074
-0.15426825 -0.10781106 -0.14513627 0.05064815 0.14224656 0.019905992 -0.09356192 0.05702906
0.056587797 0.08553996 0.036144417 0.038394503 0.03904681 0.025356969 0.13817617 -0.100006066
-0.069275275 -0.14547923 -0.024692114 -0.09885463 0.09936588 -0.14753519 0.13694225 0.050258245
-0.068395756 -0.13159087 -0.026876615 0.023967903 0.005753823 0.1119034 0.077442415 0.16066368
0.08303415 0.04751962 0.033735286 -0.108166896 0.023329938 -0.007236477 0.014288773 0.022415483
-0.15385506 -0.090073414 0.023571458 -0.029545948 0.213658 0.06622351 0.0009418044 -0.15680446
-0.061761588 -0.04166428 0.05689945 -0.013823191 -0.049149957 0.014003291 -0.13067704 -0.027758498
-0.060455974 -0.025566954 0.012167277 0.009457153 0.014503331 0.18682453 -0.060439203 0.006070005
0.030315967 0.15172267 -0.13867317 -0.11606198 -0.12431081 -0.1462892 0.07999686 -0.15796252
0.007493811 0.029965974 -0.04117365 0.060140386 0.027971053 -0.16329172 0.08329562 -0.029642494
-0.087390326 -0.0681449 -0.06506117 -0.09982507 -0.12486738 -0.0026165734 -0.06894155 -0.09898171
-0.036610488 -0.14454824 -0.09004158 0.14575577 0.024033573 -0.04946769 -0.026559372 -0.058308687
0.07833851 0.14497153 -0.0808102 0.023750002 0.10447387 -0.008564958 -0.050986 0.03558236
0.18079601 -0.0012469082 0.06188555 0.00898145 0.11304145 -0.061132636 0.013036896 0.02673242
0.051163793 -0.0017225939 0.0003893335 -0.011636142 0.17477563 0.02668454 0.031043567 -0.14582041
-0.13712162 0.118599705 0.17790687 -0.09650806 0.1417864 -0.15336677 0.1995095 0.030661704
-0.066512115 -0.05394496 -0.057002258 0.0902195 0.054092556 0.118936226 -0.12670532 0.100436114
0.004732358 0.22856274 -0.09243175 -0.16303827 -0.11341662 0.04870897 -0.06256394 -0.11221945
0.014721727 -0.012419673 0.19423184 0.2717754 0.13196792 -0.13063593 0.17855614 -0.049221937
-0.07108341 -0.033550628 -0.13989578 -0.060809277 0.098254345 0.027055603 -0.02677724 0.09263827
-0.0019889234 0.08970936 -0.02882295 -0.009294324 -0.0724193 -0.20577772 0.040978234 -0.06661873
-0.019763438 0.014872981 -0.17369755 0.007011525 0.06496513 0.015964102 -0.2119976 0.1559749

lstm.bias_ih_l0 f4 [256]
00000000: d137 4f3d 5525 fd3d c8f6 303b c0d0 1e3e
00000010: 0126 d13d 2c4c afbd 7387 92bd 6a32 ca3d
00000020: a2f0 503c 9a01 99bc 60d8 eb3c 565c 123e
00000030: b3c7 54bd 5c8c 89bd cb5b bb3d b023 3b3d
00000040: a3a4 2bbd 5c88 9d3d be66 473c 2b21 87bd
00000050: b7a2 343d f3e5 0c3e 3844 80bd 6a34 94bd
00000060: 572c 033e feaf b1bb 9ff5 39bd 2f67 9cbd
00000070: f0db 0d3d 2c6f 21bd e8ca edbc 6e69 fb3d
00000080: a2e3 21bd af4f 9cbd 809e 91bb fdf2 363d
00000090: 8309 89bd 8ff0 0d3e 6b5a a63d 853f 52bb
000000a0: aab5 02be 70ce 723c 2422 003e 0384 1cbd
000000b0: 28c2 c23b a6af 5c3d 238a d2bc 07e6 35bb
000000c0: c2f3 cbbd bbc4 133d 0d7a f83d b98a c0bd
000000d0: dcee d9bd 4876 043e d431 c83d d62a f8bb
000000e0: b2aa 0bbd fef3 063e 4568 dd3d 55e9 afbd
000000f0: e625 d43b f1bd 2abe 430e a3bd d59a aabd
00000100: bf50 223d cb98 2dbd 1c13 123e e8e9 97ba
00000110: 90f6 413e 0f6e c53d 7237 463c 5253 c23d
00000120: a18b 0b3e abda 163e 1bb6 3e3e a76a 983d
00000130: f521 ef3d 7462 bb3d aad1 fe3d d717 ccbb
00000140: 6187 ed3c cdde 6fbd e6d4 36bb bae0 283a
00000150: 0bda 263d 5a89 16bd dc82 00be 7e6d 65bd
00000160: 38d6 8c3d ba4b b2bd 7eae a23d 169e 2fbd
00000170: 977e 223b 3487 843c 09e6 80bd 8a5b 103e
00000180: a6f0 093e 2e02 c4bd 3aff 303d 9794 3a3e
00000190: 92e4 efbc 9693 f33d 5acf c73c b445 90bd
000001a0: 98f3 95bd ce7c 83bc 15b4 ec3d 2efd db3c
000001b0: 5ca7 963c cdd2 f73d e7a0 12bc c5ef 9ebd
000001c0: 4469 d33d 95af ac3d c9b9 0c3e 766d 32bd
000001d0: 1663 c1bd d3a0 0b3d 0884 703d c31d debd
000001e0: 681a 35bd f303 b33d d1c6 91bd 0233 af3d
000001f0: e25c 123e 19f1 11be a88a 303e 6613 e43c
00000200: 3531 743d c33a 893d 73c5 69bd 4b11 f83d
00000210: ba79 9b3d d3f8 85bd 1f5d bb3d 569d 99bd
00000220: 2a36 833c fe64 1cbd 4429 abbd 6a0c 95bd
00000230: 5a8a 713d 6280 e7bd 9526 3fbd 4033 343d
00000240: d0ec 03bd b9c6 e9bd 7569 ee3b 6fa0 173d
00000250: b1a9 bc3d 2eee d83d bf8a f8bd 0df7 163d
00000260: 483d 8c3d 7f1d bb3d 03b7 243d a78a ba3d
00000270: 0b93 913d 6fcf 153d bb89 7b3d 1d12 aebd
00000280: 668b 4c3c d57c c93d 466c 343c 5c62 0bbe
00000290: 40da 013e 154e 02be a82e 013d f397 793d
000002a0: 929b 993d 28eb b83d c092 f5bc 385c bbbb
000002b0: 496d 17bd 64e3 a63d e202 fc3d 3c2b 83b9
000002c0: d717 b4bd cab2 4b3c c937 a43d 42da 9f3c
000002d0: 0d08 0ebd cebc b5bd d290 2dbd cfca 123b
000002e0: 8446 eb3c a661 593d df4d eabd c312 d3bc
000002f0: 6f55 8c3d 2012 38bd 3b3a 5b3d d42c bd3c
00000300: 8ec8 babc c5c4 d6bc 9d74 853d 0945 833d
00000310: f3f1 74bd befc 02be c033 b3bb 0b31 cabc
00000320: d700 f4bc 2601 ddbd 83e5 103e b221 80bd
00000330: 246b 97bd 6389 debd 4d01 1ebd f835 ccbd
00000340: 1a09 8bbd b8ed 9cbd e7f3 90bd 886b a43d
00000350: 9dee f43c 9e23 5cbd cb09 c5bd 416f ce3d
00000360: fdb0 43bd 2b35 f43d 5b84 173e daa0 3dbd
00000370: 41b8 bf3d 05fb 1ebb 215f 7ebd 8195 36bd
00000380: c9c2 883d f73b c7b9 66bf e73d 69ba 223d
00000390: dfef d9bd 6323 aabd 7ce2 413d 9b6d 5b3d
000003a0: b44f 08bc af0a aa3d f4e7 81bd 6124 dc3d
000003b0: e5d6 ccbd 2d02 f33b 0967 bdbc b5eb c23c
000003c0: 311b e4bb 19e5 453d 20de a6bd 371d 523d
000003d0: 3499 61bd 9068 43bd 510e e03d b656 ac3d
000003e0: bf67 26bc 957d 87bc cf14 80bd 1e67 a13d
000003f0: 391f 8cbd aa74 f0bc b790 a3bd 8bdd 28bb
0.05059034 0.12360636 0.0027002562 0.1550932 0.10212327 -0.085594505 -0.07154741 0.09872897
0.012752684 -0.018677521 0.0287897 0.14293036 -0.05194826 -0.067162246 0.091483675 0.04568833
-0.041905057 0.07692024 0.012170492 -0.06598123 0.04410049 0.13759594 -0.06263012 -0.0723656
0.12809883 -0.005422591 -0.04540026 -0.07636868 0.034633577 -0.039412662 -0.029027417 0.122759685
-0.03952373 -0.07632386 -0.0044439435 0.044665325 -0.06691267 0.13861297 0.081227146 -0.0032081318
-0.12764612 0.014819726 0.12513024 -0.038211834 0.0059435554 0.05387845 -0.025700634 -0.0027755515
-0.099586025 0.03607629 0.12132654 -0.09401459 -0.10641262 0.12935746 0.09775129 -0.007573466
-0.034098335 0.13179013 0.108109035 -0.085894264 0.0064742444 -0.1667402 -0.079617046 -0.08330313
0.039627787 -0.042382043 0.14265102 -0.0011590095 0.18941712 0.09640133 0.01209818 0.09488548
0.13627483 0.14731853 0.18624155 0.07442217 0.11676399 0.09149638 0.12442334 -0.006228428
0.028995218 -0.05856209 -0.0027897893 0.0006442178 0.040735286 -0.036752082 -0.12549919 -0.056012623
0.068767965 -0.0870585 0.07943438 -0.042875372 0.0024794692 0.016177751 -0.06293876 0.1409742
0.13470706 -0.09570728 0.043212153 0.18220745 -0.029283796 0.11893384 0.024390865 -0.07044545
-0.073218524 -0.016050722 0.115577854 0.026854124 0.01839035 0.12100754 -0.008949495 -0.07760576
0.10322812 0.08431927 0.13742746 -0.04356142 -0.09442727 0.03408892 0.058719665 -0.1084552
-0.044214636 0.08740988 -0.07117999 0.08554651 0.14293244 -0.14252128 0.17240393 0.027841281
0.05961724 0.06700661 -0.057073068 0.12112673 0.07591577 -0.065416 0.09148621 -0.075007126
0.016017038 -0.03818225 -0.0835748 -0.072777584 0.058969833 -0.11303784 -0.046667654 0.04399419
-0.032208264 -0.114148565 0.007275755 0.037018236 0.092120536 0.10592304 -0.12135839 0.0368567
0.06847626 0.09136485 0.040213596 0.09108477 0.07108124 0.036574777 0.061410647 -0.084995486
0.012484407 0.09838263 0.0110121425 -0.1361174 0.12680912 -0.12725098 0.031538635 0.060935926
0.07500376 0.090292275 -0.029977202 -0.0057177804 -0.036969457 0.0814884 0.12305237 -0.0002501848
-0.087936096 0.012432763 0.08018453 0.019513253 -0.034675647 -0.08873902 -0.04237444 0.0022398715
0.028720148 0.05307164 -0.11440634 -0.025765782 0.06852233 -0.04493916 0.05352233 0.023092665
-0.02280071 -0.026216874 0.06516383 0.06409652 -0.059801053 -0.12791726 -0.0054688156 -0.024681589
-0.029785557 -0.10791235 0.14150052 -0.06256427 -0.07393482 -0.10866048 -0.03857546 -0.09971231
-0.06788845 -0.07662529 -0.07077771 0.080283225 0.029898936 -0.053744905 -0.096210085 0.10079814
-0.04777621 0.119242035 0.14796583 -0.046295978 0.093613155 -0.0024258506 -0.06210244 -0.04457617
0.06677777 -0.00038000915 0.11315803 0.039728556 -0.10641455 -0.08307531 0.047335133 0.053571325
-0.008319784 0.08302819 -0.0634307 0.10749126 -0.100019254 0.007416031 -0.02312042 0.023794034
-0.0069612493 0.048314188 -0.08147836 0.051297393 -0.055077747 -0.04770714 0.10940231 0.08414976
-0.010156571 -0.016539374 -0.06253969 0.07880996 -0.06841893 -0.029352505 -0.079865865 -0.0025766816

lstm.bias_hh_l0 f4 [256]
00000000: ab8c 513d 6844 3b3c f5f3 8cbb ec80 27bd
00000010: 5382 aa3d adcc cebc b375 61bd e2ab d93c
00000020: 8867 bd3d 1f81 bdbc 1cfd 03bc 42df ff3d
00000030: e4c5 fe3d 3aeb 8ebd d6d2 34bd db3c 053d
00000040: e52e 3eba 5019 0cbd 52eb c0bd 0f75 f73d
00000050: 379a d4bc 79dc ed3d 35bf 3b3d b4b2 1e3b
00000060: 721c d73c 8368 e53b 1a32 c63d e0ca 2ebd
00000070: e523 02be 906b 31bd 7478 d63d fcc8 d63d
00000080: 01c7 b5bd edf1 aa3d 4091 98bd e107 1c3e
00000090: 2e03 84bc 0a8c 49bd b111 9bbd 610f f7bd
000000a0: 5271 0b3d 69c3 ecbd 9824 033e cc4e 1e3d
000000b0: fbb8 c53c 5d76 8a3c 5be7 b6bd 4006 edbd
000000c0: 42fa fa3d 45dc 563d 57cc bc3d d7e9 1fbd
000000d0: 6406 33bc 3618 bab6 f68e d5bd 98be e7bd
000000e0: 0030 523d d09d 61bc 513c cf3d 3268 95bb
000000f0: 12d7 133e 6dad 05be 3278 863c 3f48 003d
00000100: 03a4 eabd c428 a8bc e2f0 46bd 7702 e63d
00000110: e139 1f3e 83ac 633d 44b3 ddbb ebce 5fbd
00000120: 07e5 ee3d 8e2d 6eba fc09 ac3d 37a1 f23d
00000130: 0a89 e43d e1dd cf3c a065 d6bc df8b 57bd
00000140: 3431 5b3d dda2 ed3d eea6 bebd 613c d8bc
00000150: ad1c ed3d 8f25 fbbc 2741 8f3d 8cac 5e3d
00000160: c1bf aa3d 5877 0fbd c5f4 993d ac40 fd3d
00000170: 520d 52bd 4723 18bc cd6d 153e 4c7a 023e
00000180: 0ef0 fb3c 3f54 dc3c b24f 853d 45f8 a53d
00000190: f51b e63d 583c c13d 1bbd c73d 951d adbc
000001a0: 8388 99bc fc52 b73d 7cf2 c33c 7138 c73d
000001b0: a446 193c f9c3 cebd 6108 d9bd c5fe 803d
000001c0: c2f8 b23d c5a5 6bbd b6ee 853d 9af1 4e3d
000001d0: 9f94 61bd 3b31 a6bc 12ad 5c3d 51c9 ce3d
000001e0: 0c33 1e3e 068b 9f3d b19f 153e 8abe 1dbd
000001f0: 2c45 ba3d 012e abbd e29f d13d 0212 073d
00000200: c99e 8b3d 695b b4bd 31b7 a9bd 93e1 90bd
00000210: f2ad bb3d 92ec 3d3d e506 8cbb f0cf 9b3d
00000220: 75d4 173c ee7a df3b 7804 253e 6e99 bcbc
00000230: 49b0 0a3e 7b5c 873c a4e5 90bd 8325 f43c
00000240: e892 633d 5d02 2abd 71b6 a0bd 43fd de3d
00000250: 6b27 a93d 8622 bdbd fda3 c4bd 41c2 a6bc
00000260: 4992 3c3d 45f5 d7bd 03c6 cd3d 4725 bcbd
00000270: 6057 d1bc 6b24 233d 9f22 0abc 79f8 d9bd
00000280: b5e7 54bd 4fd4 e1bd e37e e6bc b3af 2d3d
00000290: 2cac a53d 2dc0 b1bd 7a90 2c3d 7498 c0bd
000002a0: 2fad 07bd ba70 523c fe17 43bd 2e2c 033d
000002b0: 8109 d33d be9e dc3d 1cfb 293b e592 443d
000002c0: 9ccb 253c 5bab 41bd 814d 283d 7162 f8bd
000002d0: a0e4 22bd 35e4 42bd 92e1 2abd 46ff 753d
000002e0: f268 c63b 8061 adbd ffed bcbd d3f8 92bd
000002f0: e312 193c d13b bbbb 3ff5 663d 2040 e4bc
00000300: a848 3dbd eab0 203e effd c4bd ba8a 0c3e
00000310: 63f3 a13d 68d2 a23d 39c6 4d3c 5666 0b3d
00000320: 433b 903d a7dc 23bc 39cb 75bd 2c5f 253b
00000330: 4397 7fba 20e1 e2bd 4d83 253a 11fb 87bb
00000340: 7a38 c13b ffe4 da3c 2d4d d0bd 4d4d 9e3c
00000350: c370 7cbd 225f 58bd ee58 0b3b 0c71 8f3c
00000360: a670 4e3c c655 9fbd ce1b 903d 97a7 ac3d
00000370: 7e1f 08be e4e2 c03c 5b82 ca3d 3416 e43d
00000380: 262c 4f3d 81de 08bd b913 cfbd d054 593d
00000390: 095a c33d afa2 b43d b3ac d63d 3386 38bd
000003a0: 8dec e7bd 2b16 c93d 92f7 b03d 31ff 023e
000003b0: 5d39 e73c 3ac0 b13d 69a9 83bd d0fc 5f3d
000003c0: 0762 1bbd 8eb3 223e e82d bebd 6675 44bc
000003d0: e021 86bb 86b0 33bd 7de7 bebd 3edd 413d
000003e0: 59c2 59bd bd35 a43b e191 d63d 9c16 b03d
000003f0: 3e03 72bc 78e6 16be b873 0c3e df7d 7ebb
0.051159542 0.011429884 -0.004301543 -0.040894434 0.083256386 -0.025244081 -0.055043887 0.026571218
0.09248263 -0.023132859 -0.008055951 0.12493755 0.124400884 -0.0697846 -0.04414638 0.03252874
-0.00072549126 -0.034203827 -0.09419884 0.12082874 -0.025952442 0.116143174 0.045836646 0.0024215402
0.026258681 0.007000984 0.09677525 -0.042673945 -0.12709005 -0.04331547 0.10472193 0.104875535
-0.088758476 0.08346925 -0.07449579 0.1523738 -0.016114797 -0.049205817 -0.07571734 -0.1206348
0.034043618 -0.11560709 0.12806928 0.038649365 0.024136057 0.016902143 -0.08930846 -0.11573458
0.12254764 0.05245616 0.09218662 -0.039041366 -0.010926817 -5.5460505e-06 -0.10427658 -0.1131565
0.051315308 -0.013770536 0.10118926 -0.00455954 0.14437512 -0.13054438 0.016414735 0.0313189
-0.11457064 -0.020527251 -0.048569568 0.11230939 0.15549423 0.055584442 -0.006765755 -0.05464069
0.11664777 -0.00090857677 0.08400342 0.118471555 0.111589506 0.025374355 -0.026171505 -0.052623626
0.05351372 0.11603329 -0.09309183 -0.026395978 0.11577735 -0.030657558 0.06994849 0.054363772
0.083373554 -0.035025924 0.07517389 0.12365851 -0.051282234 -0.0092857545 0.14592667 0.12741965
0.030754115 0.02689564 0.06509341 0.08103994 0.11235801 0.09435338 0.09752866 -0.02113227
-0.018741852 0.08951375 0.023919336 0.09727562 0.009355221 -0.100959726 -0.10597301 0.062985934
0.08738853 -0.057531137 0.06539671 0.050523378 -0.055073377 -0.020287147 0.05387599 0.10096992
0.1544916 0.077901885 0.14611699 -0.03851179 0.09095225 -0.08358384 0.10235573 0.032976158
0.06817395 -0.088064976 -0.08286894 -0.07074275 0.09164037 0.04636819 -0.004273283 0.0760802
0.009266962 0.0068200743 0.16114986 -0.02302238 0.1354381 0.01652359 -0.070750505 0.029803043
0.055560023 -0.04150616 -0.07847298 0.108881496 0.082594715 -0.092351004 -0.09601591 -0.0203563
0.046037946 -0.10544828 0.10047533 -0.091867976 -0.025554359 0.039829653 -0.008431106 -0.106430955
-0.051978786 -0.11026823 -0.028136676 0.042403888 0.0808948 -0.08679233 0.04212997 -0.09404078
-0.033124145 0.012844259 -0.047630303 0.032024555 0.10304547 0.10772465 0.0025937026 0.047991652
0.010119345 -0.047282558 0.04108954 -0.12128151 -0.039768815 -0.047580916 -0.041719027 0.0600579
0.006054991 -0.08465862 -0.09225082 -0.07176366 0.009342882 -0.005713918 0.05638623 -0.027862608
-0.04621187 0.15692487 -0.096187465 0.13724795 0.079077505 0.07950288 0.012559467 0.034033142
0.07042553 -0.010001338 -0.06000826 0.0025233729 -0.0009750018 -0.110780954 0.0006313816 -0.0041498025
0.005896625 0.026720522 -0.1017097 0.01932397 -0.061630975 -0.0528251 0.0021262723 0.01750996
0.0126001 -0.07780032 0.07036553 0.08430403 -0.13293263 0.02354569 0.098881446 0.111370474
0.050579213 -0.03341532 -0.10111184 0.0530594 0.09538657 0.08820092 0.104821585 -0.045049857
-0.11324415 0.09818681 0.0864097 0.1279266 0.028225595 0.086792424 -0.06428797 0.05468446
-0.037935283 0.15888807 -0.092861 -0.011990881 -0.0040933937 -0.043869518 -0.09321497 0.047330134
-0.05316386 0.005011289 0.10477043 0.085980624 -0.014771281 -0.14736354 0.13716018 -0.003883235

lstm.weight_ih_l0_reverse f4 [256, 18]
00000000: 81fd 933d 78c2 a9bd 71d4 febd 1bb3 5abc
00000010: 910d 733d bb33 883d 7283 ccbd 624b c63d
00000020: 8e84 d03d 2c71 043d 2262 efbc e59e 94bd
00000030: 4e69 1e3d 784b fcbd c7a0 9a3d 6d28 3dbc
00000040: e06a de3d 29af f93d e61c 183e aeb0 0abd
00000050: 2cec c83c a671 da3c ffe2 a63d 3951 12bd
00000060: 4a8d 8d3d 16be 89bd 505c 68bd cf18 febd
00000070: 8dc6 bb3d 6326 173e 90fd 283d 74c0 6fbb
00000080: e5ee fbbd 40fa d9bc 4d9a 65bd 4310 18be
00000090: b565 813d 0578 acbc 7d94 08be 5c2d e1bd
000000a0: c376 bdbd 33a6 7e3c 0034 7e3a 7ec8 ca3d
000000b0: 4619 f2bd f73d e13d 0379 21be fc56 ef3c
000000c0: 745b dd3d d13f 093e 0658 36bd 6bc0 24be
000000d0: 8043 d1bd b32c 073c 6d8b 89bd 67fb 153d
000000e0: 6e0e 30be d4ba f2bd deff d43d 0247 323d
000000f0: 7856 da3d 188c 7e3d 98de 58bd e93e 853d
00000100: 53ac b9bc 1705 403d 4daf 4e3e fc84 c5bd
00000110: 1185 0abe a81c 94bb adba f63c bf06 8abd
00000120: 11ac 8dbc 6f6e 073e d62d adbd 4269 84bd
00000130: 2746 c03d a17b 833d 9c95 f7bd eec3 fabd
00000140: 44fd 9fbd 6338 13bd 3a00 343e b0be 1d3e
00000150: e006 913d 5fbd 9c3d 2b09 13be 21c3 d8bd
00000160: 126b 013e ac4d ccbd 1f89 bcbd 2bd0 903d
00000170: 43f3 ac3d 1825 bf3d b7aa db3d f47b f3bc
00000180: 0ea1 843d e0f9 aa3c 500c 6fbd 15e4 1ebd
00000190: bcca 4c3d 6600 00bb 470d 263e 7ab1 9bbd
000001a0: f0fe a13d 80df 84bd 76ee 223d 302d 1cbd
000001b0: f84b 843d 4f27 25bc ee03 573c 4b51 2cbd
000001c0: 973a 09be 3942 053e f0e4 5bbd 48af 18bd
000001d0: e088 353c 9658 563d 7a57 8e3d 3857 123e
000001e0: 626f efbd dd06 02bd ce72 b9bd 6795 00be
000001f0: 4e32 21bd 3bac ddbd fad7 27bd 836c 963b
00000200: c9a3 93bd 37ca 1bbd c5e2 f3ba 03d9 d4bd
00000210: 60d7 dabd 2ceb 00bd d83f ebbd e6c7 11be
00000220: b9e3 f53d 6cb0 1b3e c684 15be fb90 17be
00000230: 1088 843d b501 cdbd e09e b8bc 6106 d1bd
00000240: 85b1 8b3b f837 94bc 65a9 f83d 657c 303d
00000250: 6121 de3d 4723 9fbd a843 a73c 504b 293d
00000260: 546a 123d db93 693e 90b1 c2bd d58f 7abc
00000270: be2e 11be 0eb3 9f3d e5ce c3bd 7636 bdbc
00000280: 835b 0c3e 52e5 533c 119a f6bc 6e71 0cbd
00000290: 842a ff3d 02f8 583d 09a9 503d 53fa 33be
000002a0: d8d3 143d 2466 38bd 2659 93bd c760 c0bc
000002b0: 7398 353d 073b 9a3d e606 8ebd e326 ddbd
000002c0: 5970 333d 32c2 913d 7a8f 90bd 1265 8b3d
000002d0: 329c ad3c 99b0 3cbd 6020 683d 5f15 35bd
000002e0: 86e4 2ebd d781 b33d 68e7 dcbd d67a 9c3d
000002f0: ce39 e43d fc06 b93c 3b34 1d3e f0fe 31bd
00000300: 4bd1 b9bd c8f6 f9bc 319f 3cbd b714 82bd
00000310: 828a f23d 0323 d93d f6ea 683d ac25 193e
00000320: 4e5d 333e 829d e0bd 462c c8bd fd38 753e
00000330: 3c9c 15bd 0026 01ba 605b 0d3c 581d 0bbd
00000340: fd69 33bd af27 b13c fcda 20be b836 a73d
00000350: b2ad 033d 31e0 bcbd e035 b5bc d29a 163e
00000360: e81e 263e 1833 643d 701a 333b 6d2f 5abd
00000370: e19c b33d 4c2e 103e eea7 cd3d 24ca f83d
00000380: 4202 f83d d261 16bd 7844 463c 256d bebb
00000390: ccfa 05be b3f6 90bd 0b77 803d 7fa8 b23d
000003a0: 15e0 9e3c d7ea d93d 99d6 2b3e 9718 2b3d
000003b0: c027 4dbe ecd4 403d 7c08 17bd 7ff9 673d
000003c0: 08ba 43bd 8c3f b93d 1c22 673d 6833 79bd
000003d0: c515 6e3d f649 34bd 606e 8bbc 076a 023e
000003e0: f13f d3bc 8356 dbbd af10 e9bd 1c62 09bd
000003f0: 7e54 033e e16e 9fbc 4744 e93d c21f fa3c
0.072260864 -0.08289045 -0.12442864 -0.013348366 0.05933911 0.06650492 -0.09986009 0.09682347
0.10181533 0.03233449 -0.029221598 -0.07256869 0.038674645 -0.12319082 0.07550197 -0.011545283
0.108602285 0.12191612 0.14854774 -0.0338599 0.024526678 0.02666552 0.08148765 -0.03572199
0.069117144 -0.06725709 -0.05672866 -0.124070756 0.0916873 0.14760737 0.04125744 -0.0036583217
-0.12301425 -0.026608586 -0.056055356 -0.14849953 0.06318227 -0.021053324 -0.13337894 -0.1099498
-0.092511676 0.015542555 0.00096970797 0.09901522 -0.11821227 0.10998147 -0.15768819 0.029216282
0.10808459 0.1340325 -0.04451754 -0.16089027 -0.10217953 0.008250403 -0.067160465 0.03661671
-0.17193004 -0.11852041 0.10400365 0.04352475 0.10661024 0.062145323 -0.052946657 0.0650614
-0.022665178 0.046879854 0.2018406 -0.096445054 -0.13527323 -0.0045200177 0.03011831 -0.06739568
-0.017293962 0.13225721 -0.08456008 -0.06465389 0.093883805 0.06420065 -0.120890826 -0.12244402
-0.078119785 -0.035942446 0.17578211 0.15404773 0.070813894 0.07653307 -0.14358966 -0.10584093
0.126385 -0.09975752 -0.09205841 0.07070955 0.08444836 0.09333247 0.10725921 -0.029722191
0.06476031 0.020871103 -0.05836135 -0.038791735 0.04999803 -0.0019531487 0.16216002 -0.0760221
0.079099536 -0.06487942 0.039778195 -0.03812903 0.064598024 -0.010080173 0.0131234955 -0.042069715
-0.13401257 0.13013543 -0.05368513 -0.037276536 0.011079997 0.052330576 0.069502786 0.14291084
-0.116911665 -0.031744827 -0.090551004 -0.12556992 -0.039354615 -0.10823866 -0.040977456 0.0045905723
-0.07208974 -0.038034644 -0.0018607011 -0.10392954 -0.10685611 -0.031474277 -0.114867866 -0.14236411
0.12006325 0.15204018 -0.1460143 -0.148014 0.06471264 -0.10010091 -0.022536695 -0.10206295
0.0042631053 -0.018093094 0.121416844 0.043087382 0.1084621 -0.077704005 0.020418003 0.04133159
0.035745934 0.22810309 -0.095065236 -0.015293081 -0.14177987 0.07797824 -0.095609464 -0.023097258
0.13706784 0.012933092 -0.030102761 -0.034287862 0.12459281 0.052970894 0.050942454 -0.1757596
0.036334842 -0.045019284 -0.07194738 -0.023483647 0.04433484 0.0753079 -0.069349095 -0.10798433
0.043808315 0.07117118 -0.07058616 0.06806387 0.021192644 -0.046066854 0.0566715 -0.044209834
-0.042698406 0.08764999 -0.10786325 0.076406166 0.11143838 0.022586338 0.15351956 -0.043456018
-0.090731226 -0.030513182 -0.046050254 -0.06351607 0.118428245 0.10602381 0.0568647 0.14955777
0.17516062 -0.10967542 -0.097740695 0.2394752 -0.03652595 -0.0004926622 0.0086277425 -0.03396353
-0.04380225 0.021625368 -0.15708536 0.08164734 0.03214807 -0.092224486 -0.022120416 0.14707497
0.16222727 0.05571279 0.002732899 -0.053267885 0.08770157 0.14080161 0.10041796 0.1214793
0.12109806 -0.036714382 0.012101285 -0.005811351 -0.13083953 -0.07078304 0.06272706 0.08723544
0.01939396 0.10640495 0.16781081 0.041771498 -0.20034695 0.047078058 -0.036873326 0.056634422
-0.047784835 0.09045324 0.056429014 -0.06084004 0.05812623 -0.044015847 -0.017020404 0.12735759
-0.025787326 -0.1070986 -0.11380135 -0.03354083 0.128252 -0.01946205 0.11389976 0.030532721

lstm.weight_hh_l0_reverse f4 [256, 64]
00000000: 6b15 223d d9fd 38bd 4548 e93c 5b45 353b
00000010: c5b4 0e3d 0552 473d 95cd db3d bd86 e73d
00000020: 09c4 5e3c 0a47 91bd a792 98bc d75b cbbd
00000030: 63ef bf3d 6689 ddbd 5e24 533d f109 03be
00000040: 04c8 183c 55ef 563a af45 29be 4b80 02be
00000050: 4f1e e03d 1a57 893d ecb7 d5bc c32d 413e
00000060: 0880 593d 3297 31be aefb e43d 2b0f e63c
00000070: 3483 f23c eb78 d53c 5cab 153b 9252 ba3d
00000080: e549 53bd 57b9 0fbe f851 f8bc a1c1 7cbc
00000090: 6cfe 0fbe 5697 e8bd 4a0b dd3c 52bc c93b
000000a0: 306c 373b 6bac ec3c 583a 26bc 5235 d0bb
000000b0: 478d 1d3d 9318 02bd 26dd ac3b d4a2 b1bd
000000c0: c202 e23d f1ec 34bd 944c 0a3c 4470 fc3c
000000d0: 8144 1b3e 30c8 9ebd 06a3 253c d19b efba
000000e0: 2a69 09bd 4b4c 0fbd 2ba2 82bd 6f27 863d
000000f0: d0f2 64bd 5d21 c9bd 83a7 91bd 7ad7 74bd
00000100: 5987 53bc ef02 c43c 007b 063d 42e4 cf3d
00000110: c00b 36bc 7ae0 0d3d e915 623d d77b 22bc
00000120: 2fcb 35bd 6f17 e2bd 85be 24bd d14c 8c3d
00000130: de02 e7bb 5bc0 1f3d 8766 113d 1217 78bd
00000140: 6e1d cb3d 0d48 26bd 88cd 583d 0733 843d
00000150: 942a 203d 1516 903c 4b54 ff3d 19f9 b53d
00000160: 173b 7cbc 045b 07be 80ce ba3d 904b ea3d
00000170: 50c5 f8bd e38a 53bd 8968 29bd 7463 11be
00000180: 5977 7dbb 640d d2b8 259e 133e fcf2 db3c
00000190: cc26 13be e248 043e 3104 e7bc 1b58 adbc
000001a0: da48 913d cdd8 c7bd 1f76 6b3d 2397 eb3d
000001b0: 0fef c8bb 7aee 2a3d 7b43 13bd 29a8 20bd
000001c0: fa21 c2bd 52c6 d7bd ff79 bcbd aba1 4cbd
000001d0: 721c b2bd 1ccc 71bd 81b9 173d 1ab2 a53d
000001e0: 3f6e bfbc acd9 86bc 3f05 14bd 11f4 46bd
000001f0: dc23 75bd e613 353c eea5 cfbd a463 a5bd
00000200: 4bad 2cbd fe92 d23d 0194 123b be85 dabc
00000210: d68e 15be c83f 06be 87f2 09be 868b 923c
00000220: 99c1 96bb 24bb 3dbd dd81 20be 3931 9dbc
00000230: 2e50 9dbd 83e3 b63d 50e3 113e c0f9 9b3d
00000240: 08f3 14be 89f5 75bd 3fec 09be c5c2 9aba
00000250: 2d02 8dbc b5ae d83d 3e9e a53c 3e22 243e
00000260: 66db 0bbe 6f38 4b3d 7845 bb3d abfc 1cbd
00000270: 555a d0bc e17d 12bd 8c32 39bd 9b14 af3d
00000280: e282 4f3c 555b 093d b7cb 0abd 1502 27bc
00000290: e0a7 97bc c090 1e3d 5b73 6dbd 16b4 c0bc
000002a0: da2a 883d 6971 9cbd 0569 d1bd 9bef 8a3d
000002b0: dc2f 6c3d 3097 38be 3244 213d 079f a8bd
000002c0: 50cf 203d 845c 013e 0476 4d3d 506e a2bc
000002d0: 55b2 b33d 9df3 643c 10f0 fa3d 84cd c83d
000002e0: a55a e4bd bee2 d8bd 0ae6 fa3d 163e 9f3d
000002f0: d9a8 ee3c e274 743d c16a febd f600 a3ba
00000300: 2238 5c3c 08d7 0a3e ec0d ea3d 393b 443d
00000310: 8358 303d ee17 2abd 87ae f13d c1ff f2bc
00000320: b215 fabd 7c04 a43a b06c f03d 7aff 3b3e
00000330: e4c2 3a3d 4822 c23d a10e d63d 6e11 39bd
00000340: 74ca 3dbe 04ef 2cbd cff3 a83b cdcc de3d
00000350: b767 68bd c453 24be 8385 313d 4871 bbbd
00000360: da82 aebd 6a58 ebbd 3616 b83d 9f36 cfbd
00000370: dd83 3bbb 945b 23be cfa1 d3bd d165 ecbd
00000380: 5c3f 00bd 4c26 843d 23c5 92b9 de4d 3a3e
00000390: 03fd 8abd 775f f93c 4cf3 923d 34e0 223e
000003a0: 2a5d cabd 0157 54bd 7a4f 4f3d e12a 853c
000003b0: d276 edbc bf0f c13b a37d 9a3d f69b be3d
000003c0: 3580 ebbd 4965 f63d 9a28 dd3b 42d6 2abd
000003d0: c5e0 05be a2a2 343d aec2 86bd c1e6 a9bd
000003e0: b78c b43d c93b a33d ab05 093d f84e 30be
000003f0: ba7c 49bd 205c d4bd 816d 39bd 6b9b d2bd
0.039571207 -0.045163963 0.028476844 0.0027659747 0.034840364 0.048662204 0.10732571 0.11304996
0.013596543 -0.07093628 -0.018624617 -0.099296264 0.09371831 -0.10817222 0.051548354 -0.12796761
0.009325031 0.00081991154 -0.16530488 -0.12744252 0.10943281 0.067060664 -0.026088677 0.18865113
0.053100616 -0.17342833 0.111808166 0.028083405 0.029603578 0.026058635 0.0022837734 0.0909778
-0.051584143 -0.14035545 -0.030312523 -0.015427024 -0.14061898 -0.1135699 0.026982922 0.0061564827
0.0027988069 0.028890809 -0.010145746 -0.0063540125 0.03846481 -0.031761717 0.0052753864 -0.08673635
0.11035682 -0.044171277 0.008441109 0.030815251 0.15162851 -0.077530265 0.010109669 -0.001828069
-0.033547558 -0.034984868 -0.06378587 0.0655049 -0.055895627 -0.09820817 -0.071120284 -0.059775807
-0.012910687 0.02392718 0.032832146 0.101509586 -0.0111112 0.034637906 0.055196676 -0.009917221
-0.044383224 -0.11039626 -0.040220756 0.06850589 -0.0070499023 0.039001804 0.03549817 -0.060568877
0.09917723 -0.040596057 0.052930385 0.06455045 0.039103106 0.017588655 0.124672495 0.08885402
-0.0153949475 -0.13218313 0.09121418 0.11440194 -0.121470094 -0.051646125 -0.041359458 -0.14198095
-0.0038675873 -0.000100160745 0.14415796 0.026849262 -0.14370269 0.12918428 -0.02820024 -0.021160176
0.070939735 -0.09758148 0.057485696 0.115034364 -0.0061320136 0.041731335 -0.035953026 -0.03922287
-0.09479137 -0.105358735 -0.092029564 -0.049958866 -0.08696832 -0.059032544 0.037042145 0.08090611
-0.023368 -0.016461216 -0.036137816 -0.048572604 -0.05984865 0.011052107 -0.101390705 -0.080756456
-0.042157453 0.10281943 0.002236605 -0.026675101 -0.14605269 -0.13110268 -0.13471423 0.017888796
-0.0046007154 -0.04632105 -0.15674539 -0.01918851 -0.07681309 0.08930113 0.14246869 0.076159954
-0.14545834 -0.060048614 -0.13469027 -0.0011807313 -0.017212952 0.10580198 0.020217057 0.16028687
-0.13657913 0.049614366 0.091441095 -0.0383269 -0.025433699 -0.03576458 -0.04521422 0.08548852
0.012665482 0.033534367 -0.033885684 -0.0101933675 -0.018512666 0.038712263 -0.05797134 -0.023523372
0.06648798 -0.07638819 -0.10225109 0.06783982 0.05766283 -0.18026423 0.039371677 -0.08233457
0.03926021 0.12632948 0.050161377 -0.019827992 0.087742485 0.013974098 0.122528195 0.09804824
-0.111501016 -0.10590123 0.12250908 0.07775514 0.029133247 0.05968178 -0.124227054 -0.00124362
0.0134411175 0.1355859 0.11428437 0.04790804 0.04305316 -0.041526727 0.118008666 -0.029662969
-0.12211169 0.0012513543 0.117394805 0.18359175 0.04559602 0.09479195 0.10452009 -0.045182638
-0.18534261 -0.04222013 0.0051560174 0.108789064 -0.056739535 -0.16047579 0.043340217 -0.09152466
-0.08521052 -0.11491473 0.089886114 -0.1011784 -0.0028612532 -0.15952903 -0.10333597 -0.115428574
-0.031310424 0.06452617 -0.00027994168 0.18193766 -0.067865394 0.030441029 0.071753114 0.15905839
-0.09881051 -0.051840786 0.050612904 0.016255798 -0.028987322 0.0058917697 0.075434946 0.09307091
-0.11499063 0.12031037 0.006749225 -0.04170824 -0.13074024 0.04410041 -0.06580101 -0.08295966
0.08815902 0.079703875 0.03345267 -0.17217624 -0.049191214 -0.10369134 -0.045270447 -0.1028355

lstm.bias_ih_l0_reverse f4 [256]
00000000: 0b69 863d 6648 563d 85d6 5bbd b008 313c
00000010: 4e37 9d3d 4640 efbd 1981 5b3d a2c0 cb3c
00000020: ba7e 1bbd 7b03 df3c 5954 acbd 3f16 d53c
00000030: 3d41 883d 0827 a73d be9c 8bbd 8d97 f7bd
00000040: c476 e13d feef c53d cf42 09bd 8199 093d
00000050: 7bcc 84bd d07e e2bd 528d 00be c802 77bd
00000060: 7c6d bd3d a139 c1bd bbbd 2c3d f414 10bd
00000070: 3f2e 96bd 666a f93d 917c d43d 1369 edbd
00000080: 72e6 ca3d a777 573d 84e3 cd3a 5adc 123d
00000090: c179 8bbd f6a2 23be 944c 9c3d b533 b73c
000000a0: cbc4 14bd de9d 64bd a5e2 b63d 0d4e c23d
000000b0: 82ea 08be 1c21 d2bd 4820 c5bd 9628 12be
000000c0: 4172 debd 4917 a43d 34ea 8e3d 0d3b d1bd
000000d0: eb81 44bd 41ad 2abd 1e6b 87bd 3be8 86bb
000000e0: f006 64bd 3006 253e 0b2f 533b 75cb 693d
000000f0: 3e9f 7cbd 8884 da3d a2f0 e43c f57d f8bb
00000100: 88b8 dabd 922f 09be 7f3d 8ebd fb78 8d3d
00000110: 8426 81bd 1057 b03d 8fad 953b 71df f9bd
00000120: 83d0 433e bf14 85bd ca20 88bd 766c 16bd
00000130: 6ae9 70bd 60a0 b03d 86dd 413c 2dce cc3d
00000140: c6c7 89bc 0246 b1bd e20a 1e3c f5cd 153d
00000150: c4fd 03bd 4f16 97bc 8167 11be 75c1 94bd
00000160: f718 0abe 655f 153d 3c6f 63bd 6d9e b43c
00000170: e225 ee3d 1b43 92bd 730a b3bc f57b 91bc
00000180: 7554 f5bc 7f25 f4bd db56 c1bd 0ac5 763b
00000190: c169 7b3c c7d8 9f3d b88c 963d 6754 b9bd
000001a0: e0f8 d63d 93a1 743d 0631 adbc f9c4 973d
000001b0: 1e71 bfbd 40e4 bc3d 0ffd 6bbd 1774 0cbe
000001c0: d7c9 c8bd 1c5b ca3d c7e6 ad3c 5b37 b53d
000001d0: da10 443d 9919 adbc 78ec b1bd fcb2 a6bd
000001e0: 251d 1e3d 130c 103e 6aa6 d2bc 8905 f93d
000001f0: ce5a 99bd cb21 82bd 3680 babd 50f8 d3bd
00000200: 7374 1c3d 36e2 91bd 1890 a4bc 26fd db3c
00000210: 2e94 d8bb c0c7 b23b a2c3 82bd 7be4 5fbd
00000220: 1a1e a23d 7966 57bd a2b4 2b3d d49f e13d
00000230: e751 22bd 54ae 3bbd 9a8f a2bc 12af f3bd
00000240: 3f3d b7bb fcbf b6bd d70a 37bd 7bd8 07be
00000250: b943 dbbc 81b4 1b3c 5670 9dbc 401d aebc
00000260: 8a36 873d 88b3 b1bc e53b 633b 88ce aa3d
00000270: a56c d33d 1e4a 643d 2a01 923d 1834 8fbd
00000280: 57f6 5e3d 2cfd 6fbd 2f1e 003e b359 61bc
00000290: a1e7 a73d 9761 22bb 4890 ab3d 36f1 3a3d
000002a0: 93b6 4c3d 83cf 5cbc 83c3 303d e8bc 6fbd
000002b0: 3f97 523b 273b 8ebd ea9d 6bbc b451 c4bc
000002c0: 5c46 f3bc 3333 cc3d 70c9 9c3d 0f5f b33d
000002d0: 2a5f 043e 566e 6dbd 41c4 5dbc 970c b1bc
000002e0: c134 5a3b 0e3f bcbd 7f64 a6bd c5ac 693d
000002f0: a5bb 0cbd e044 91bd d2f9 8cbd 7f28 d23b
00000300: 9dab c0bd edb6 b03d 4381 d93c e35d 7b3d
00000310: 056f 9f3d 554f 66bc 7cd4 8bbc b602 66bd
00000320: b890 363e 8b9b cc3d 9242 c13d 2d17 76bd
00000330: 2a69 493d 4936 223d 1eee d93d 9833 dfbd
00000340: 5583 fa3c 46b4 8d3d a602 173e 0cd8 4dbd
00000350: 7ef2 b0bd 175f b53d 69b9 63bd 0633 bc3d
00000360: 7ccc 34bc 424d c1bd fc54 8abd bd1b ab3b
00000370: f5d9 61bd c399 bd3c 5f05 11bd fef9 65bd
00000380: 0d19 043e 5bb6 693d 90d4 24bd aef3 473d
00000390: 1e71 06be 8171 0abe 210c 8dbd c380 f13c
000003a0: 04a3 75bd 7434 2c3d 5d5f 66bd 47b9 dcbc
000003b0: 1c06 bcbd ab4e ed3d c218 e1bd 3c42 0cbe
000003c0: 2d79 d8bc a150 dbbd 78ad 543a 86a1 543d
000003d0: 5746 0c3d 9642 c93c 254f 7fbd 16df 92bd
000003e0: d3f6 d5bc 2295 1d3e 0ce5 aebd 24ee 9a3b
000003f0: add9 44bd f53e cc3d a606 033d d111 9cbd
0.06563004 0.05231514 -0.05367138 0.010805294 0.07676564 -0.11682181 0.053589914 0.024872128
-0.037962653 0.02722334 -0.084145255 0.026011584 0.06653068 0.081617415 -0.068170056 -0.12089453
0.11008981 0.096649155 -0.03351098 0.03359366 -0.06484314 -0.11059344 -0.1255391 -0.060305387
0.09249398 -0.0943482 0.04217313 -0.035176232 -0.073330395 0.12178497 0.10375322 -0.11592307
0.09907235 0.052604344 0.0015708064 0.035854675 -0.06810332 -0.15980133 0.076317936 0.022363523
-0.03632049 -0.055814616 0.08929948 0.09487543 -0.13370708 -0.10260221 -0.09625298 -0.14273295
-0.10861636 0.08012254 0.069782645 -0.10216341 -0.047975462 -0.041669134 -0.06612228 -0.0041170395
-0.05567068 0.16115642 0.0032224085 0.057078797 -0.061675303 0.106698096 0.027946774 -0.0075833746
-0.10679728 -0.13397053 -0.06945323 0.06907841 -0.063061744 0.08610356 0.004567809 -0.12200821
0.1912251 -0.06498098 -0.06646879 -0.03672453 -0.05881635 0.08624339 0.0118326 0.100002624
-0.016818892 -0.08655931 0.009646149 0.03657337 -0.03222443 -0.018443255 -0.1419964 -0.072634615
-0.13486086 0.03646793 -0.055526003 0.0220482 0.11628319 -0.071417056 -0.021855569 -0.017759303
-0.029947499 -0.11921214 -0.094403945 0.0037654066 0.015345038 0.07805019 0.07351059 -0.090493016
0.10496688 0.0597244 -0.02114154 0.074106164 -0.09347747 0.09223223 -0.057614382 -0.1371616
-0.09804123 0.09880659 0.021228207 0.08848449 0.047867633 -0.02113037 -0.08687681 -0.08139607
0.038602013 0.14067106 -0.025714118 0.12159259 -0.07488023 -0.06354102 -0.091064855 -0.10350096
0.038196992 -0.071232244 -0.02008824 0.026854109 -0.0066094613 0.005455941 -0.0638497 -0.054661255
0.07915898 -0.05258796 0.04192031 0.11016813 -0.03962889 -0.04582055 -0.019843865 -0.118986264
-0.005592018 -0.08923337 -0.044688072 -0.13266174 -0.026765691 0.009503485 -0.019218605 -0.021254182
0.066021994 -0.021692052 0.003467315 0.08340174 0.10323457 0.055734746 0.07129128 -0.06992358
0.054434147 -0.058591053 0.12511514 -0.013754296 0.081984766 -0.0024777406 0.08377129 0.045640193
0.049978804 -0.013477209 0.043155205 -0.058529764 0.0032133607 -0.06944876 -0.014380911 -0.02396474
-0.029696636 0.09970703 0.07655609 0.08758365 0.12926927 -0.057966553 -0.01353556 -0.021612449
0.0033295604 -0.09191714 -0.08124637 0.05704953 -0.03435864 -0.07093215 -0.06883587 0.006413519
-0.09407733 0.0862864 0.026550895 0.061368834 0.07784847 -0.014057 -0.017069094 -0.05615493
0.17828643 0.09990605 0.094365254 -0.060080696 0.049172558 0.03960255 0.106411204 -0.108985126
0.030580202 0.0691915 0.14747104 -0.050254866 -0.08640002 0.088560276 -0.055596743 0.091894194
-0.011035081 -0.09438564 -0.06754491 0.0052218125 -0.0551395 0.023144608 -0.035405513 -0.056146614
0.12900181 0.057058673 -0.040241778 0.048816375 -0.13129088 -0.13519861 -0.06887079 0.029480344
-0.059969917 0.04204221 -0.05624329 -0.026943816 -0.09180853 0.1158727 -0.1099105 -0.13697141
-0.026424969 -0.10708738 0.0008113007 0.051911853 0.03424677 0.024567883 -0.062331337 -0.071714565
-0.026118672 0.15388921 -0.08539781 0.0047280956 -0.048059154 0.099729456 0.031988762 -0.07620586
