ml/models/shoulder_lstm_model.pt (torch, 593887 bytes, 19 tensors)

lstm.weight_ih_l0 f4 [256, 18]
000000 85 7c 94 bd ad 20 47 bd 8f 6a 11 3e 76 8c 4a 3e
       -0.07250313 -0.048615146 0.14200805 0.19780144
000010 c5 6d e9 3d 6e 76 2b bd 64 84 74 3d 37 ea 56 bd
       0.1139789 -0.04186099 0.05969657 -0.05246946
000020 c4 38 b2 3d 08 33 67 bd 8b 30 8c bd 33 0c ad 3d
       0.087022334 -0.05644515 -0.06845196 0.084495924
000030 fa b4 e7 3d e3 58 f0 3d 7c d5 26 be 55 44 c0 3c
       0.113138154 0.11735704 -0.16292375 0.023470083
000040 5a dc 45 3e 91 ec 22 3d c1 e8 81 3d 2d 93 6c bd
       0.19322339 0.03977639 0.063432224 -0.057757545
000050 03 49 d9 38 32 8d 7b bd 44 dd d3 3d ec e7 af bd
       0.00010360966 -0.06141395 0.103449374 -0.085891575
000060 20 8b a4 3d ed 5d 30 3d a2 3f d2 bd be 5c 2a be
       0.080343485 0.043058325 -0.10266043 -0.16636941
000070 71 78 30 be f1 7a 44 3e 24 0c 27 bd af 22 10 3c
       -0.17233445 0.19187523 -0.040783063 0.008797332
000080 1d cd 8b bd 78 6a c9 3c 5d df 2c bc 8a 85 0c 3d
       -0.06826232 0.024586901 -0.010551301 0.03430704
000090 f7 b9 e3 3c e7 ba c4 bd 66 33 88 3d 3d 98 28 3e
       0.027798636 -0.09605961 0.066504285 0.16464324
0000a0 5a 6b 9e 3c 4d 77 82 3d 4c 73 ab bd a7 6f 81 bd
       0.019338299 0.06370411 -0.083716005 -0.06320124
0000b0 34 6d 2c 3d d4 93 47 3e 1d 22 2a bd ef fa 04 3d
       0.04209633 0.19489986 -0.04153644 0.03246587
0000c0 e8 44 d9 bc de f3 28 3d 90 a7 b3 bd 15 84 fc bd
       -0.026522115 0.041248195 -0.087721944 -0.1232988
0000d0 8b e3 ea 3d a4 78 11 bd e4 3a 07 3e 22 97 a1 3d
       0.114691816 -0.035515442 0.13206059 0.078901544
0000e0 80 0f 2a be 3a fe 62 3d d8 42 cc bd ac 92 5e 3e
       -0.16607475 0.05541823 -0.09973687 0.21735638
0000f0 40 cf e6 3c 0c f3 64 3d 5c fe da 3d 2f 35 34 3d
       0.028174996 0.05589585 0.106930465 0.043996032
000100 c0 a9 ce bc 20 85 23 3e a1 d0 a2 bd 50 c9 0b 3d
       -0.025227427 0.15968752 -0.07949949 0.034127533
000110 c7 91 a9 bd 7c 5c f2 bd 3c c6 ab 3c fa 26 1a bc
       -0.08279758 -0.11834046 0.020968549 -0.009408707
000120 89 1e 07 3e 2c 11 d3 bd 3e 70 eb bb 4b cc 84 bd
       0.13195242 -0.1030601 -0.007185011 -0.06484278
000130 ba 80 d9 3c d5 34 1e be 3c 20 36 3d fa 40 99 bd
       0.02655064 -0.15449841 0.044464335 -0.074830964
000140 70 a9 4c bc 4c a7 41 bd a3 97 09 be 53 a2 76 bd
       -0.012491569 -0.047278687 -0.13436751 -0.0602134
000150 3c af 9a 3d dc c3 f1 3d e6 09 42 3d ae dd 99 bd
       0.075529546 0.11804935 0.04737272 -0.07512985
000160 6d ab 1b bd 6f fa 8a bb 28 84 50 bd f3 4d ae 3d
       -0.03800528 -0.00424128 -0.050907284 0.085109614
000170 7b b5 e8 bc dd 55 a6 3d 0f 54 97 3d 04 9a b3 bd
       -0.02840685 0.08121846 0.0738908 -0.087696105
000180 ca 94 98 bd bb b1 48 be 32 9f bc bd a0 4f 14 3e
       -0.07450254 -0.19599049 -0.092100516 0.144835
000190 03 e3 90 bd cc 09 0b be 05 60 3b 3e ea f6 d5 bc
       -0.07074549 -0.13577956 0.18298347 -0.026118714
0001a0 6d 96 8e bd 6f 29 39 3e 2e f2 5f 3d 51 0a 1d be
       -0.06962285 0.18082212 0.05467432 -0.15335967
0001b0 c2 77 d5 3d 76 2d c7 bd 45 9a 26 be d5 1b 04 3e
       0.104232326 -0.09725468 -0.16269787 0.12901242
0001c0 79 3a f1 3d df ff 1a 3d a0 c0 b5 3b 65 1e 7c bd
       0.11778731 0.037841674 0.0055466443 -0.061552424
0001d0 a0 9b 8a 3c c1 12 2a bd b5 a0 0e be 7a 73 42 bd
       0.01691991 -0.04152179 -0.13928492 -0.04747341
0001e0 b3 a7 03 3d 7a 02 65 bc da 90 c0 3b 8a 2c e9 3d
       0.032142352 -0.013977641 0.0058766427 0.11385448
0001f0 8a 3f 9e 3d ed b7 53 3d b0 d6 d2 3d 3a 03 46 3c
       0.07726963 0.051689077 0.10294855 0.01208573
000200 3b 2e 88 3d 53 e8 3c bc 54 88 3e bd 32 4a ba bd
       0.06649443 -0.01153 -0.04651673 -0.09096183
000210 6a 93 8b bd 7f 58 01 bd b8 db ba 3c 63 42 6e be
       -0.068152264 -0.031578537 0.022809848 -0.23267512
000220 d5 45 dc bd c3 9b 20 bd 9f 4e 65 3d a9 9b 17 3c
       -0.10755507 -0.039211046 0.055983182 0.009253421
000230 a2 97 4d 3d 70 f3 3b bc 05 92 c2 bd 9d e1 97 bd
       0.050193436 -0.011471614 -0.09500507 -0.07416079
000240 c2 30 fc 3d 02 93 9c 3c e4 db ac bb c4 13 d0 bc
       0.12313987 0.019113068 -0.0052752364 -0.02540005
000250 c5 2f ed bd 1d 95 03 be a8 9e e0 3c cd fa 4c bc
       -0.11581377 -0.12849851 0.027419403 -0.012510967
000260 20 8a f2 3d 07 26 3d 3d f1 49 28 3e 78 5c a3 bc
       0.118427515 0.046178844 0.16434456 -0.019941553
000270 c0 26 d0 3c a7 21 55 3c 63 b4 cf bd 9c 6f e1 3d
       0.025409102 0.013008512 -0.10141828 0.11007616
000280 db 91 e7 3d 6c f3 00 3d 99 65 c4 bb 1a 46 05 3e
       0.113071166 0.031482145 -0.0059935567 0.13015023
000290 b4 73 82 3d 45 0a 11 be 83 b8 60 be 0d 4f 08 3c
       0.06369725 -0.14164074 -0.21945386 0.008319628
0002a0 6e cc bd bd a2 0e 24 3e 88 70 bc 3c 5b 98 27 bc
       -0.092675075 0.16021207 0.023002878 -0.0102291955
0002b0 98 6f 1e bd 5b 49 cf 3d ba 44 19 bd b7 15 e7 bc
       -0.038680643 0.10121413 -0.03741906 -0.028208597
0002c0 26 01 27 3e cc 97 e7 3d f2 5f b4 3c 7c 62 b3 bd
       0.16309032 0.1130825 0.022018407 -0.08759019
0002d0 5c 62 c6 bd fb 35 0e 3e c5 60 65 3c e4 31 8e 3c
       -0.09686729 0.1388778 0.014000122 0.017357774
0002e0 9f 9f 85 bd d6 41 82 3d ae 86 a2 bd 44 24 ea 3d
       -0.06524586 0.063602135 -0.07935844 0.11432698
0002f0 b0 f9 14 3d b4 a8 b4 bd 70 db 94 bd 9c c3 4a 3d
       0.036370933 -0.0882124 -0.07268417 0.049502954
000300 e1 1a a8 bd 45 df ff bd 5d 46 2d bd 38 55 03 3c
       -0.08208252 -0.12493757 -0.04230343 0.008015923
000310 b9 64 5d bd b2 86 3a 3d b3 d3 1c be 3f e4 b9 bd
       -0.054051135 0.04553861 -0.15315132 -0.090767376
000320 9c 0a f2 bd 8e 61 0b 3e 77 c4 51 bc 25 51 e6 3d
       -0.1181843 0.13611433 -0.0128031885 0.11245946
000330 18 58 84 bc f7 f2 7a bd 1c d3 37 bd 84 2e c1 3d
       -0.016155288 -0.061266866 -0.044879064 0.094327
000340 22 a4 49 be 59 1e 84 3d db a2 88 3d 25 44 8c bd
       -0.19691518 0.06451101 0.06671687 -0.06848935
000350 2e f3 a7 bd ec cf e6 bd 41 88 fb 3d ae 97 7b bd
       -0.0820068 -0.11270127 0.12281848 -0.06142395
000360 d0 fe 1e be 71 aa a9 bd 6b 5c f0 bd bb e6 85 be
       -0.15526891 -0.08284462 -0.11736377 -0.26152596
000370 3e 60 86 be ca de 36 3e dc 31 e0 bd d0 8f 18 3e
       -0.26245302 0.17858425 -0.1094701 0.1489861
000380 6c 14 96 bd fd fa e6 bc e7 02 05 be 0d b6 0a be
       -0.07328114 -0.028195852 -0.12989388 -0.1354601
000390 f7 01 4d 3d 1c 5e 3e bd 95 2c d1 bc a7 ac d9 3d
       0.050050702 -0.04647647 -0.025533954 0.10628634
0003a0 e4 e6 98 3d b1 6f 80 3d 13 02 ca 3c 94 f6 18 3d
       0.07465914 0.062713034 0.024659192 0.03734453
0003b0 34 37 80 3e d4 89 8a be c9 f3 6a bd 38 7f dd bd
       0.25042117 -0.2705828 -0.057361398 -0.10815281
0003c0 94 62 c7 3d 85 c8 73 3d 34 ae 06 3d 25 af 6d be
       0.09735599 0.059517402 0.032880977 -0.23211344
0003d0 70 76 9d 3e 59 70 bb 3c d1 89 56 3e b2 48 49 3d
       0.30754423 0.02288072 0.2095101 0.049141593
0003e0 ae f1 3a be a1 dc 05 3e 21 8d 86 3d de 73 bf 3c
       -0.18256256 0.13072444 0.06569887 0.02337068
0003f0 a6 64 2c bd 58 a9 e3 bd 6e c5 97 bd 47 e5 05 3e
       -0.042088173 -0.11116284 -0.074107036 0.13075744

lstm.weight_hh_l0 f4 [256, 64]
000000 1b 56 e1 3d 73 0a ad bd b6 f1 c3 bc 09 aa bd bd
       0.110027514 -0.08449259 -0.023918968 -0.09260947
000010 89 fa b9 3d a9 6f ab bd 1d fa c2 3d b2 cd dc 3d
       0.09080989 -0.08370907 0.095203616 0.10781421
000020 ba cb bc bd af ae cc bd bd 1c be 3d 53 cc 8e 3d
       -0.09218545 -0.09994256 0.09282825 0.069725655
000030 e9 39 9a bd b8 6d e8 3c 34 60 f8 3c e7 3a 6c bc
       -0.07530577 0.02837263 0.03031931 -0.01441834
000040 bf 55 42 bd 4a f7 24 bd d9 e0 7b 3d fc 4d 4d 3e
       -0.047445055 -0.040274896 0.06149373 0.2004928
000050 80 06 27 3e 05 1a 0f 3e 0c dd cb bd 73 db 0f be
       0.16311073 0.1397477 -0.09954271 -0.14048557
000060 1e 23 a3 3d 4e 2c 30 be 93 bb 06 3d 94 e1 d3 3d
       0.079656824 -0.17204401 0.03289373 0.1034576
000070 08 1d 81 3d c4 d3 34 3e fd b0 bf 3c d3 fd 94 bc
       0.063043654 0.17658907 0.023399824 -0.01818744
000080 80 9c 23 3d b6 32 01 3e 57 dd ca 3d d1 50 0a 3e
       0.039944172 0.12617001 0.099054985 0.13507392
000090 d5 43 72 3d 46 f8 b5 bd cc 2f 1d bd 70 ff 32 bd
       0.05914672 -0.08885245 -0.03837566 -0.043700635
0000a0 ee 39 10 3e 0e 17 67 bc ca 37 85 bd 78 52 5b bd
       0.14084598 -0.014104618 -0.065047815 -0.053545445
0000b0 07 d6 3e be 25 17 fe 3c b0 ea 27 3e 14 31 a2 ba
       -0.18636332 0.031016896 0.1639812 -0.0012374246
0000c0 ec 16 f7 bd d7 fe 07 3e a9 8c 99 3c 0d 77 47 bd
       -0.12064919 0.13280807 0.01874383 -0.04869752
0000d0 66 e7 62 3e 8d d1 71 bd b0 52 02 be 8f 80 a4 bd
       0.22158584 -0.059037734 -0.12726855 -0.08032333
0000e0 fd f1 72 3d e2 33 d0 bb 28 ab b7 3d 9a 25 9c 3d
       0.05931281 -0.006353841 0.08968192 0.076243594
0000f0 bc db 8d 3d 12 50 96 3d ac 22 c2 3d 79 96 af 3d
       0.06926677 0.07339491 0.094792694 0.08573622
000100 c0 ab f2 3d a0 b1 8f 3d 90 fa 27 3e 70 8c 27 bd
       0.11849165 0.07016301 0.16404176 -0.040905416
000110 d9 24 92 bd 93 c3 2c 3d 4e c4 63 3d 7e 16 fe 3c
       -0.071359344 0.0421787 0.055607133 0.031016584
000120 e1 d5 06 3e 66 59 bc bd db db ee 3d 2e 6d 5e bb
       0.13167526 -0.09196739 0.11663028 -0.0033939588
000130 e6 2b 19 be a6 9a 82 3e 44 ce 96 bb 16 72 1e 3c
       -0.14958152 0.25508612 -0.0046022255 0.009670755
000140 6b ea b6 bd b2 42 12 3e a1 6c 0b be 50 d8 cd 3d
       -0.089314304 0.14283255 -0.13615657 0.10051024
000150 66 73 9f bd e5 c3 e5 bb 07 ba 9c bc 61 f3 87 3c
       -0.077856824 -0.007011878 -0.019131673 0.016595544
000160 e7 c2 c7 3d 67 d3 92 bd 5d f1 4e bc ac be a9 bd
       0.097539715 -0.07169228 -0.012630788 -0.08288321
000170 c6 38 0f 3d 06 fd d3 bd 0d ab 20 3e cd 15 95 bc
       0.034966253 -0.10350995 0.1569025 -0.018198872
000180 e3 1d 8d 3d c1 5a 13 3d 86 61 71 3c 95 3e 08 be
       0.06890466 0.03597522 0.014732724 -0.13305123
000190 aa 9c 6c bd 00 e2 de bd 5d a7 4e 3d 1b ce 3d 3b
       -0.057766594 -0.1088295 0.05045258 0.002896196
0001a0 94 b1 a3 3d 0f 4e 11 3e 86 f6 19 3d 67 cd 3a bd
       0.07992855 0.14189933 0.03758862 -0.045606043
0001b0 67 5f 30 bd fa 0c a2 bb 4e 80 0b be 80 80 03 be
       -0.043059733 -0.0049453946 -0.13623163 -0.12841988
0001c0 93 22 a5 3d 89 59 ef 3d e2 43 08 3d 74 5f d1 3b
       0.08063235 0.11686999 0.033267863 0.0063895527
0001d0 91 83 9d 3d 55 4c 17 3d c7 c3 10 3e 2c cb ab 3d
       0.0769111 0.03693803 0.14137183 0.08388361
0001e0 d9 d1 c2 3c 1a e2 aa 3d 87 26 e6 3d 57 9b c2 bd
       0.023781704 0.08343907 0.11237817 -0.09502285
0001f0 d5 c7 6e bd a0 ef 46 bd 0b 32 a5 3d ad ea 9f 3d
       -0.058296043 -0.048568368 0.080661856 0.07808433
000200 b2 f1 d3 3d 3e 87 d4 3d b9 f8 19 be 44 ff 90 bd
       0.10348834 0.10377358 -0.15036286 -0.07079938
000210 cb e7 a0 bd bd 46 f3 bb d8 a0 1a 3d 8a 15 e3 bd
       -0.07856711 -0.007424204 0.03775105 -0.110880926
000220 8f 76 08 be ff 45 f1 bd 27 d7 94 3c f6 62 be bd
       -0.13326477 -0.11780929 0.018168999 -0.09296219
000230 4d f9 01 3e 3f 0d 82 bd 3f 21 84 bd 3b 60 b3 3d
       0.12692757 -0.06350183 -0.06451654 0.08758589
000240 54 e1 9b bd 5b 0f a1 3d ee 11 74 3d 82 b7 ef bd
       -0.07611337 0.07864257 0.05958741 -0.11704923
000250 ab 9f 2f 3c 6c f2 06 be 82 43 90 3d 66 6c 0f 3b
       0.01071922 -0.13178414 0.07044126 0.002188468
000260 1e 55 0a be 3c e8 b8 bd 9b 59 09 bd d2 df da bd
       -0.13509032 -0.0902867 -0.03353272 -0.106872216
000270 65 67 24 3e 7e f7 44 3d 7c ef 02 bd 2b db 77 3e
       0.16055067 0.04808759 -0.03196667 0.242047
000280 4a de d0 3d bc c7 f5 bc 6c 20 98 3d 0f 8a b4 3d
       0.10198648 -0.030002467 0.07428059 0.08815395
000290 f2 c3 d1 bd 72 32 b6 bb 3f cd 6c 3b 81 b8 19 be
       -0.10242452 -0.005560213 0.0036133078 -0.15011789
0002a0 af c7 4b be a7 e0 0b be 92 61 d3 3d 2e d3 ba 3c
       -0.19900392 -0.13659917 0.103213444 0.022805776
0002b0 49 28 81 bd 64 27 d7 3c 3f a5 26 3e 40 96 fc bc
       -0.06306512 0.0262639 0.16273974 -0.030833364
0002c0 a5 d4 a1 3d ec 52 8e 3d 81 43 4e bd 78 e0 c5 3d
       0.07901887 0.0694941 -0.050357345 0.09661955
0002d0 57 04 ce 3d ff 48 a6 bc 9e 55 f5 bc 65 17 b4 3d
       0.100594215 -0.02029848 -0.029948052 0.08793525
0002e0 91 bc f6 bc d0 c3 b2 3b 4a 8d 1d bc 86 fe c8 3d
       -0.030119212 0.0054554716 -0.0096162055 0.098141715
0002f0 e9 fb cc bb a9 28 e1 3d 9d 83 d1 bc ab 7a da bb
       -0.006255616 0.109940834 -0.025575453 -0.006667455
000300 ee 53 a2 bd 66 84 69 3d 68 7b 3d bc f4 c6 19 bd
       -0.079261646 0.05701103 -0.011565067 -0.037543252
000310 4f 81 bd 3c 00 5a d7 3d c1 5c 06 bd e9 ba 07 3e
       0.023132948 0.10515213 -0.0328033 0.13254894
000320 b8 dc ee 3d 0d 89 05 3d 9f 96 46 3d 2d 8e d6 3d
       0.116631925 0.032601405 0.048483487 0.10476337
000330 13 41 5f be 91 50 96 bd d3 cd 69 bd fe 83 f8 bb
       -0.21802168 -0.073395856 -0.057081055 -0.007584094
000340 f3 01 d8 3d bc 80 3c 3d 27 63 28 be fe 3f df 3c
       0.10547247 0.04602121 -0.16444074 0.027252194
000350 9d 7e 26 bd 45 7c a6 3c ff 3d 8d bc aa e2 11 3e
       -0.04064809 0.020322928 -0.017241476 0.14246622
000360 84 eb 81 ba c5 69 63 bc ed f0 0d be eb 3e 25 be
       -0.0009912108 -0.013880198 -0.13861437 -0.16137283
000370 a3 9f 19 3d 78 b1 bc 3d ee a0 a3 ba 1e 10 3c 3c
       0.037505757 0.09213537 -0.0012483874 0.011478452
000380 6d 03 a1 bd 98 c2 d8 3d 90 0a 96 be 91 61 28 be
       -0.078619815 0.10583991 -0.29304934 -0.16443469
000390 da fb ea bd 4c 9f 1c 3d b4 44 c8 3c 26 85 a4 bc
       -0.11473818 0.038237855 0.024446823 -0.020083021
0003a0 a5 1d 5c bd b6 91 09 be 91 49 c8 bc f0 63 04 be
       -0.05373921 -0.1343449 -0.024449142 -0.12928748
0003b0 12 ca d0 bd 0a fc 22 be a8 4a 28 3d ba ca cc 3c
       -0.10194792 -0.15916458 0.041086823 0.024999011
0003c0 b4 79 2c bd 3b de 16 bd f7 01 e5 bd aa 2c f1 bd
       -0.042108253 -0.03683303 -0.111820154 -0.11776097
0003d0 77 df 94 3d a2 3f f2 bc 7d 40 a7 bd 79 57 08 be
       0.07269185 -0.029571358 -0.08166597 -0.13314618
0003e0 09 d0 67 3d 45 4a 4c bd eb ba 03 bb aa 36 23 3e
       0.056594882 -0.049875516 -0.0020100425 0.15938821
0003f0 b5 17 ce 3d ce a2 6e bd 00 60 f6 bd 33 99 f1 3d
       0.100631155 -0.05826073 -0.12030029 0.117967986

lstm.bias_ih_l0 f4 [256]
000000 bb 78 7b bd 6b c1 b5 bd 4c 66 78 bd f1 1b e8 bd
       -0.061394434 -0.08874782 -0.060644433 -0.113334544
000010 cb 07 ce 3d 4f d5 ca 3d dc c2 7f bd 4f 63 1d bd
       0.1006008 0.09903967 -0.06244169 -0.038424786
000020 61 e0 7c 3c eb 7b 07 be 2d fa 75 38 77 e3 e5 3d
       0.0154343555 -0.13230865 5.8645546e-05 0.11225026
000030 58 ea bf bd 9d 7d d1 bd 01 c8 2b be c3 75 b9 3d
       -0.093708694 -0.10229037 -0.16775514 0.090556644
000040 d0 f8 4f bc 7f 5f c9 bb fa 2b 18 3d f3 4a 06 3d
       -0.012693599 -0.006145417 0.037151314 0.03278632
000050 4a 02 98 3d 47 16 06 bd 37 5e 90 bd 57 01 00 3d
       0.074223116 -0.03273609 -0.0704922 0.031251278
000060 c2 d3 f9 bd ce 99 2e 3c 53 fb e7 3d bb 0c 5b be
       -0.12198593 0.010656787 0.11327233 -0.21391575
000070 a1 6d 46 bd 5c 09 07 3e d1 e2 8f 3c d2 76 25 bd
       -0.048444394 0.13187164 0.01756421 -0.04039652
000080 49 ee 99 bd e6 cf 09 be cf e8 32 bd dd 0e 60 bc
       -0.075161524 -0.13458213 -0.043679055 -0.013675419
000090 a7 24 f8 bc c1 e7 a5 bc 2a 31 c8 bd 42 47 af bd
       -0.030290915 -0.02025211 -0.09775002 -0.08558513
0000a0 f9 33 8c 3d cb 5d fc bd 4a 59 ab 3d 09 99 d4 bd
       0.068458505 -0.12322577 0.0836664 -0.10380752
0000b0 f4 98 19 be a0 f0 cd bd 11 ca f2 bc 64 23 eb 3c
       -0.14999753 -0.10055661 -0.029637368 0.028703399
0000c0 37 0f 0e be 8c fa 57 bc 27 2f ea bd 5e 07 f5 3b
       -0.13872992 -0.013182294 -0.11434775 0.007477685
0000d0 03 60 42 bd cb 1f 10 3e fa 19 72 bb 7a 10 40 be
       -0.047454845 0.14074628 -0.0036941753 -0.18756285
0000e0 29 db a7 bd 9e 15 96 bc a8 6c 39 bd b6 4e 63 bd
       -0.08196098 -0.018320855 -0.04526964 -0.055494986
0000f0 02 57 ae 3c 00 9b ca bd 8a 4d 08 be 2f 64 20 3d
       0.021281723 -0.09892845 -0.13310829 0.039158043
000100 55 fb 82 bc aa 1b dd 3d 38 57 9f 3d 05 f4 76 3d
       -0.015988985 0.10796292 0.077803075 0.06029131
000110 34 11 cb 3d ab e7 0e bc 74 d0 1d bc b0 f0 d7 3d
       0.099153906 -0.008722226 -0.009632219 0.10543954
000120 76 b2 04 3d 52 58 eb bd 53 72 0a bd 74 18 d5 3d
       0.032396756 -0.11491455 -0.033800434 0.10405055
000130 76 72 0e bd ac e8 b3 3d b0 5d d7 3c 35 19 a0 3c
       -0.034777127 0.08784613 0.02628979 0.01954327
000140 58 cf ad bd 25 bc aa bd d1 ff 5a bd ae 4a 68 bd
       -0.08486813 -0.08336667 -0.05346662 -0.056711845
000150 41 0c 77 bd 53 5a f6 3d f9 3a 82 3d f0 2c bb 3d
       -0.06031442 0.12028947 0.063589044 0.091394305
000160 31 0f 35 bd c4 5c 00 be dc 53 47 bc ba 45 98 3d
       -0.04420394 -0.12535387 -0.01216599 0.07435174
000170 d8 76 d2 3d 5d a1 c3 3d 5e 22 35 3e 02 a6 ce bd
       0.10276574 0.09552262 0.17688891 -0.10090257
000180 11 52 63 bd f1 0d fe 3c c0 99 f4 3d 2e 67 8c 3d
       -0.055498186 0.031012507 0.11943388 0.068556175
000190 43 c0 cf bd d9 8f a6 3d 72 a1 9e 3d 00 0c 6f 3d
       -0.10144093 0.081329055 0.07745637 0.058361053
0001a0 3c 16 83 3d c3 4c 41 3d 07 b5 12 bd bf ad c1 3b
       0.06400725 0.047192346 -0.035817172 0.0059106047
0001b0 f6 cd b1 3d dc 3b b0 3a 2f 74 dd 3d c4 0b cc bd
       0.08681862 0.0013445574 0.10813176 -0.099631816
0001c0 c1 5f a7 3d 6b 16 32 3e 14 cc 67 3d 6d 6a 24 3c
       0.081725605 0.17391364 0.05659111 0.0100351395
0001d0 c4 5b ec bc fd ab 11 bb 5d b7 fb 3d 50 10 b4 bd
       -0.028852351 -0.0022227757 0.12290833 -0.08792174
0001e0 a4 fe 21 3d e3 00 22 bd ee 2a e0 bd 8a 93 18 3e
       0.039549485 -0.039551627 -0.10945688 0.14900032
0001f0 a1 6c ef bc 83 a7 0b 3e 77 6f ed bd f3 d6 0e 3e
       -0.029226603 0.1363812 -0.11593526 0.13949184
000200 6b 89 24 bd cb 20 a9 bd ac e9 d8 3d 85 df d2 bd
       -0.040170114 -0.08258208 0.105914444 -0.10296539
000210 d3 ca 50 bd c0 c8 b2 bc 71 8c 66 3d 54 e6 6d 3d
       -0.05097468 -0.02182424 0.05628628 0.058080986
000220 db 24 72 3d 8a 95 9d 3c 6b 62 b1 3d 95 e6 e2 3d
       0.05911718 0.019236345 0.0866135 0.11079136
000230 cd e5 04 3e 3c 03 60 bd 2d 78 3a 3d d9 04 05 3e
       0.12978287 -0.054690585 0.045524765 0.1299013
000240 38 46 b1 3d 41 47 66 bc 06 ee f6 bd ff 74 c4 3c
       0.08655971 -0.014055074 -0.12057118 0.02398157
000250 b9 fa 1c 3d 4d 6b ff 3d c2 a1 b2 bd 36 ea aa 3d
       0.038325045 0.12471638 -0.08722259 0.083454534
000260 34 53 4e 3d 90 83 06 3d 4e b5 01 bd 16 0a 03 bd
       0.050372317 0.03284031 -0.031667046 -0.03199204
000270 95 c4 09 bd 6c 18 56 3d d8 2a 43 3e 9d ef 85 bd
       -0.03363474 0.052269384 0.19059312 -0.06539843
000280 4e 40 00 be dd b2 7f 3d 30 e2 7d 3d b4 f3 61 3d
       -0.1252453 0.062426437 0.061983287 0.055164054
000290 80 eb 21 3e cb 52 91 bd 1b c1 11 be 41 6f 09 3e
       0.15812492 -0.0709587 -0.1423382 0.13421346
0002a0 a7 ae c2 3d 9e 4f db bc 8a ab d7 bc 87 89 d6 bc
       0.095059685 -0.026771363 -0.026326913 -0.026188625
0002b0 f7 ed 80 3b bb 24 7a 3d 05 3e f3 bd ec 00 46 bd
       0.0039346176 0.061070185 -0.11877064 -0.048340723
0002c0 c1 37 21 3e fb 62 a0 bd c0 a2 85 bd 2f 5c 04 bd
       0.15743925 -0.07831379 -0.06525183 -0.032314476
0002d0 68 59 92 bd 57 b0 26 bc 0c e0 fa bc 24 e3 4e 3d
       -0.07145959 -0.010173879 -0.030624412 0.050509587
0002e0 03 3e 39 3b 0d 38 b2 3d 08 c0 be 3d 46 43 0a 3d
       0.0028265722 0.08702097 0.09313971 0.033755563
0002f0 bc 6d 48 bd ca 6f 22 3e 29 57 87 3d 4b 72 d7 3d
       -0.048932776 0.15862957 0.06608421 0.105198465
000300 31 5e be 3b a8 3f bc bd 07 c6 bb bb 5e ad 8b 3b
       0.0058095683 -0.09191829 -0.005730394 0.0042626103
000310 af f1 bb 3d 7f fe 33 3e 33 38 37 bd 36 48 fe 3d
       0.09176957 0.17577551 -0.04473133 0.12416117
000320 6c 8c f7 bc 9a 3d 98 bd 8e e7 a2 bc 72 e4 11 3d
       -0.030218326 -0.074336246 -0.019885805 0.035618253
000330 42 54 e1 bd 67 e0 a9 bc d9 72 f5 bd 67 fe 82 3d
       -0.11002399 -0.020736886 -0.11984796 0.0639618
000340 7f d1 37 bd e3 e1 93 bd cf 92 f6 bd a0 ff bc 3d
       -0.044877525 -0.07220819 -0.1203972 0.09228444
000350 8d 0b d8 3b 18 4c db bc 87 16 54 3d 89 b6 a4 3d
       0.006593174 -0.026769683 0.051779296 0.08042628
000360 f8 8e b5 3c a2 72 4f 3d 10 99 90 3d 8a fd 34 be
       0.0221629 0.05064643 0.07060444 -0.17674842
000370 93 f5 97 3d fc 38 9c 3d 27 ee 55 bd ab d2 32 ba
       0.074198864 0.076280564 -0.052229073 -0.0006821553
000380 0c d7 be bd de 29 ba 3d 75 3c 6a bb 3e 32 07 3e
       -0.09318361 0.09090017 -0.0035741602 0.1320276
000390 a8 5c 0f be 39 80 88 39 ca 1f 1e 3d 55 b0 b0 bc
       -0.1400019 0.00026035475 0.038604535 -0.021568457
0003a0 f1 66 ec 3c 02 8a 10 3d e0 83 82 bd 2c 99 cb 3d
       0.02885768 0.035287865 -0.063728094 0.099413246
0003b0 da c9 af bd a6 3d a3 3d 38 39 ae 3d 05 69 57 bd
       -0.08583422 0.07970743 0.08507007 -0.05259039
0003c0 9e c2 c4 bd 6e 45 fc 3c b2 8b b5 bc a6 12 e1 bd
       -0.09607433 0.030794825 -0.022161338 -0.10989885
0003d0 be 02 70 bd 8c 64 d3 bd 13 9a 54 3e 88 58 60 3c
       -0.058596365 -0.10321912 0.207619 0.0136929825
0003e0 ac ec f6 3d 01 f9 ca 3d c5 9d 89 bd 05 5d 06 bb
       0.1205686 0.09910775 -0.06719545 -0.0020502221
0003f0 92 06 25 3d 89 a3 a8 bd 08 82 93 bc 5e e9 08 3e
       0.04028947 -0.08234317 -0.01800634 0.13370273

lstm.bias_hh_l0 f4 [256]
000000 2d d0 27 3d f1 8e f5 3b 9a ca ae bd 51 c5 98 bd
       0.040970016 0.0074938466 -0.08534737 -0.0745951
000010 67 94 1b 3d d7 92 fb 3d a0 79 47 bd 16 d4 b1 bd
       0.037983324 0.12283867 -0.048699975 -0.0868303
000020 21 4a b1 3d 02 1e b0 bd f5 e6 75 3d 93 a0 b5 3d
       0.08656717 -0.085994735 0.06003471 0.08868518
000030 10 0f 3d bd 19 84 f7 bd 3b e8 2e be a8 5e b9 b9
       -0.046156943 -0.120857425 -0.17080776 -0.00035356474
000040 11 15 af 3d a4 1a 0d 3d 98 d7 ad bd 73 56 91 bd
       0.0854894 0.034449235 -0.08488387 -0.07096567
000050 7e b8 da bd 32 1a fc bc 5b 11 50 bc 12 99 76 3d
       -0.1067972 -0.03077421 -0.01269945 0.060204573
000060 04 90 d8 3b 44 ff 85 bb 13 44 92 bd f5 82 86 bd
       0.006608965 -0.004089268 -0.071418904 -0.06567947
000070 fd 4d d9 3d 3b fc 8b 3c 59 4d c7 3d 6f 76 00 3e
       0.10610578 0.017088046 0.0973155 0.12545179
000080 bf 08 cb 3d b7 a1 08 bd d5 fd a4 bd 89 00 34 3d
       0.099137776 -0.03335735 -0.08056227 0.043945823
000090 2a 36 13 be bf ca ba 3d 83 0b 05 be c2 ff dd 3b
       -0.1437613 0.09120702 -0.12992673 0.0067748735
0000a0 f6 ee 03 3e 1d ed 45 bd a9 a8 ac 3c 96 43 2d be
       0.12884125 -0.048321832 0.021076517 -0.16920313
0000b0 92 95 cb bd a1 d6 1a be 50 21 74 bd 09 2b ba 3d
       -0.09940638 -0.15120937 -0.05960208 0.090902396
0000c0 7c 4a 19 be 08 99 a6 3d f3 5a 4b 3d 8e 9a f3 bc
       -0.1496982 0.08134657 0.049647283 -0.029736783
0000d0 09 c9 c8 bc 9e 9d 01 3e 16 ef d6 3c 53 de d2 bd
       -0.024509924 0.12657782 0.026237052 -0.10296311
0000e0 59 6a d7 3c c0 1f 07 3e f7 2d 35 be 49 fa 59 3d
       0.026295828 0.13195705 -0.17693315 0.053217206
0000f0 cf 32 11 bd 38 2a ae bc a9 96 af bd 3f aa 72 bc
       -0.035448845 -0.021260366 -0.08573658 -0.014811098
000100 c0 5b e4 bd bd db 3e bd 63 76 14 bd 3f c8 9a 3d
       -0.111503124 -0.046596278 -0.036245715 0.07557725
000110 24 77 07 bd 5a 78 2f 3e 17 12 bb bd df 2d 0e 3e
       -0.033072606 0.17135754 -0.0913431 0.13884686
000120 36 af 9b bc 95 dd 71 bd 74 d0 18 bb 9c cf 7c 3d
       -0.019004446 -0.059049208 -0.0023317607 0.06172143
000130 ee 40 a1 3d 74 24 71 3e 74 9f d5 3c 19 2b 16 3e
       0.078737125 0.23549062 0.02607701 0.14664878
000140 68 ce f1 3d a3 e8 8e 3d af 8a 55 bd 3e 9f ae 3a
       0.11806947 0.06977966 -0.052134212 0.0013322604
000150 c0 74 b8 3d c5 2d bc 3d 8b 55 a7 bc 68 4f 1a 3e
       0.09006643 0.09188417 -0.020426532 0.15069354
000160 01 a2 b0 3c f7 20 21 be f9 34 e5 bd 0e 75 a7 bd
       0.021561624 -0.15735231 -0.11191744 -0.08176623
000170 2a a3 57 3d ce 17 81 3d 27 36 02 bc 0e 61 94 bd
       0.05264584 0.063033685 -0.007947481 -0.07245074
000180 fb 6c 9b bd fb 33 41 3d 04 a7 2f 3d 2b 26 6e bd
       -0.07589146 0.047168713 0.042883888 -0.05814187
000190 ef 75 7f bd 8b 56 05 3e 2e d5 0d be 87 e7 a1 bd
       -0.06236833 0.13021295 -0.13850853 -0.079054885
0001a0 07 b2 9c 3c 43 8d 15 bd 19 a2 1e bd 51 f6 46 bd
       0.019127859 -0.03651167 -0.038728807 -0.04857475
0001b0 aa a7 ae 3b a4 2c 62 3d a4 1c f9 3d 06 9a b1 bd
       0.0053300457 0.055218354 0.12163666 -0.08671956
0001c0 97 ce 88 3c e3 55 2c 3e 83 aa cd bd 84 09 31 bc
       0.016700072 0.16829638 -0.10042288 -0.010805491
0001d0 87 73 ac 3d 8a 7c 9b bd aa 96 40 3e 6b 3d 36 bd
       0.084204726 -0.07592113 0.18807474 -0.044492166
0001e0 b8 6d 05 bd 1a c9 83 3c 61 c8 33 3d 6e 31 0d bd
       -0.03257534 0.016087104 0.043892268 -0.034470968
0001f0 7f 14 1a 3d 5b 7c 32 3d b1 55 f4 bd 1c b9 11 3e
       0.037617203 0.043575626 -0.11930407 0.1423077
000200 37 3f 42 3d c6 90 90 3d 1e 51 83 3c dc e9 da bc
       0.047423568 0.07058863 0.01602989 -0.026722841
000210 2c 47 6b bd 88 78 33 3e 2e c8 cb bd 09 6e 14 be
       -0.05744092 0.17526448 -0.099502906 -0.144951
000220 cb cb df bd 38 35 79 3d 69 4a 89 3d db f8 d0 3d
       -0.10927542 0.06084177 0.06703646 0.102037154
000230 ec 48 e2 3d 52 12 2e bd 9a 55 ae bd 9a 9d 66 bd
       0.11049065 -0.04249794 -0.08512421 -0.056302644
000240 8e 60 96 3d 58 c6 f3 3a 84 58 bd bd 35 b6 07 bd
       0.07342635 0.001859854 -0.09245399 -0.03313275
000250 8b 5a a7 bc d9 27 1c 3d 9c df 8a 3d b5 42 1a bd
       -0.020428916 0.03812394 0.06780931 -0.037661273
000260 48 8e 5d bd a7 3d 25 bd 01 ff b2 3d 71 4f ef bc
       -0.054090768 -0.040342 0.087400444 -0.029212685
000270 80 f9 7a 3d 4f 3d c6 ba c8 f1 74 ba 27 ef 22 3d
       0.061273098 -0.0015124473 -0.00093438895 0.039778855
000280 86 bd 03 3d 5c 52 af bd bc 85 99 3b 64 1a 0e bd
       0.032163166 -0.08560631 0.004685132 -0.034693137
000290 38 00 27 3b 13 60 a7 3d 16 6e a4 3d d6 89 5b bc
       0.0025482308 0.081726216 0.0802881 -0.013399562
0002a0 f7 20 05 bd 3d a6 0c be 46 99 c6 3d ee 4d 58 3d
       -0.03250214 -0.1373529 0.09697203 0.052808695
0002b0 c8 af 2c bb eb 01 bb 3d 3a 3f 10 be f9 83 a5 bd
       -0.002634989 0.09131225 -0.14086619 -0.080818124
0002c0 4d 99 ad bd cb 1d 88 bd 37 5f 83 3d 3b 34 cd 3d
       -0.084765054 -0.066463076 0.06414645 0.10019728
0002d0 41 21 2d bd 7e 1c 3a bd b1 0f e7 bc 92 ed 86 bd
       -0.04226804 -0.04543733 -0.028205724 -0.06588282
0002e0 18 06 5a bd 89 fa 92 3d ac e9 14 bc 66 56 3f 3d
       -0.053228468 0.07176692 -0.009088915 0.046713255
0002f0 dd 03 b7 bd 70 2e ba 3d 97 ea 26 3d 3f 71 51 bd
       -0.08936284 0.090908885 0.040751066 -0.05113339
000300 b6 67 b6 3d a8 4a 45 bd 9c 95 b5 bd dd 7d 2f 3c
       0.089065 -0.0481669 -0.08866426 0.0107111605
000310 95 ff 01 3e 66 b7 00 bd d1 4d 84 bd c0 a6 86 3d
       0.12695153 -0.031424902 -0.06460155 0.06574774
000320 c1 a2 d5 bd 65 31 5f bd a0 3b cd bd c3 08 1b 3c
       -0.104314335 -0.054490466 -0.10021138 0.009462538
000330 0a 45 d3 3d 23 af f9 3c 40 95 3a bd 40 d8 0e bd
       0.103159025 0.03047902 -0.045552492 -0.0348742
000340 a3 2b 8c 3d d3 06 08 be c2 0e 06 be 0b 26 a3 3c
       0.068442605 -0.13283853 -0.13091567 0.019915601
000350 3a df cf bd 8e 7f e5 3d f5 a9 c1 bd 0e bd f8 3d
       -0.10149999 0.1120597 -0.09456245 0.12145434
000360 f1 3d 8a bd 32 be 9b bd 27 bd 7e bd 71 04 88 bd
       -0.06750096 -0.07604636 -0.06219211 -0.06641472
000370 2c 89 5a bd bc a1 c7 3d e7 2f 44 3e fc f7 bc bd
       -0.053353474 0.09747645 0.19158898 -0.09226987
000380 ab a3 23 3d 8f 64 64 bd 6b de df 3d c8 cc c1 3d
       0.039951008 -0.055759963 0.10931095 0.09462887
000390 8b 98 92 3c 8d cc 99 bd dd e1 02 be 3c 11 aa 3c
       0.017895004 -0.07509718 -0.12781473 0.020760171
0003a0 be cc 84 bd 5f ac da bb e6 30 d0 3d 39 ae 38 bd
       -0.06484364 -0.0066733803 0.10165577 -0.045088027
0003b0 c2 49 ef bd f5 e6 74 bd f6 d4 d9 3d 51 e7 21 3d
       -0.1168399 -0.05979057 0.10636322 0.03952724
0003c0 f8 81 26 bd 5d 0c 1d 3e 61 a5 b7 3d a9 5b a1 bd
       -0.04065129 0.15336747 0.089670904 -0.07878811
0003d0 29 a7 ef 3d d2 94 f7 bd e7 f6 2a 3d a2 cd c2 bd
       0.11701805 -0.12088932 0.04173937 -0.095118776
0003e0 a1 c8 ce bd 87 4c c2 3d ef 25 ab bd 17 40 a5 bd
       -0.10096861 0.09487253 -0.08356845 -0.08068865
0003f0 cb fc d3 bd 04 d4 10 bc aa 3c b2 3c 3e e7 11 3c
       -0.10350951 -0.008839611 0.021757443 0.00890523

lstm.weight_ih_l0_reverse f4 [256, 18]
000000 61 73 95 3d 3e 09 aa bd 62 55 8d 3d b1 55 f3 3d
       0.072973974 -0.08302544 0.06901051 0.11881579
000010 40 fe ad bd 42 45 3e be a0 ae bd bc 1e 8e 90 3d
       -0.0849576 -0.18581107 -0.023154557 0.07058357
000020 44 c1 5f 3d 19 dd 2d be be 30 33 3e c6 02 a6 bc
       0.05462767 -0.16978873 0.17499062 -0.020264994
000030 c4 d4 a1 bc 5b 0d 65 bd 41 25 d8 bd 0b 25 34 3d
       -0.019754775 -0.05592094 -0.105539806 0.04398064
000040 4a 46 d1 bc 8e b2 7f bd b0 04 43 be 26 b4 aa bc
       -0.025546212 -0.062426142 -0.19044757 -0.020837855
000050 88 64 0b 3d 5d be 0d 3e 9e c9 0e bd 3c fb 93 bd
       0.03403142 0.13842149 -0.034860246 -0.072256535
000060 18 66 4e bd b7 7b d4 3d c8 ae a4 3d 67 31 99 bb
       -0.050390333 0.10375159 0.080411494 -0.0046750787
000070 37 62 38 bd ea f9 83 be eb fc 03 3d b7 f8 ed bd
       -0.04501554 -0.25776607 0.032223623 -0.11619704
000080 84 ad fb bd d3 b8 d6 3c 37 fb cd bd b0 e4 ed 3d
       -0.12288955 0.026211178 -0.10057681 0.11615884
000090 8b cc ab bd 2b 86 8c 3c 18 72 46 be b9 f4 fa 3d
       -0.08388623 0.01715382 -0.19379461 0.122537084
0000a0 9a 68 80 3d 34 43 58 3e d0 06 b0 bc 5b 74 59 3e
       0.06269951 0.21119386 -0.021487623 0.21235792
0000b0 ea bf 8a 3d f0 dd 3d 3d f5 4f aa 3d 7c 04 fc 3d
       0.06774886 0.046354234 0.08316032 0.12305543
0000c0 84 e0 7c 3d f5 3a e6 3c 0e f5 0c be 8d 11 20 bd
       0.061737552 0.028104285 -0.13765356 -0.039079238
0000d0 62 59 0a be dd 07 e1 bc b2 4a 43 3d 62 fb 71 3d
       -0.1351066 -0.02746957 0.047678657 0.059077628
0000e0 06 8f e9 bd cd 43 94 3d 84 f2 28 be 20 32 1f 3e
       -0.11404233 0.072394945 -0.16498762 0.15546465
0000f0 7c ee f9 bd a3 cc 12 be 6c c8 1e bd aa 84 6d bd
       -0.122036904 -0.14335875 -0.038765356 -0.057987846
000100 91 80 e4 bd be 69 92 bd 23 21 82 3d 08 73 e5 bd
       -0.111573346 -0.07149075 0.063539766 -0.11203581
000110 cf e8 6e bc f2 b5 a8 bd 99 05 83 3d d4 d4 9c 3c
       -0.014581873 -0.08237828 0.06397552 0.019144453
000120 a3 d0 06 3d d9 13 ea 3c 14 7b b3 3d dc 95 80 3e
       0.032913815 0.028573917 0.0876371 0.25114334
000130 9c 40 0f 3e ab 86 80 bd 9e a0 ea bd d7 7f 1b bd
       0.1398949 -0.06275686 -0.114564165 -0.037963714
000140 00 25 1a 3b b6 56 73 3d 93 17 02 3d 15 af 4c bc
       0.002352059 0.059408866 0.031760763 -0.012492915
000150 4a 88 3f bd 4d 35 e6 3c 46 f1 da bc 6b c2 eb bd
       -0.046760835 0.028101588 -0.026726376 -0.11511692
000160 f4 cc b5 bd 40 b7 8f bd 0f cc 74 3b 46 ed 86 3d
       -0.08876982 -0.07017374 0.0037353074 0.06588225
000170 0a 8d bf 3d 55 b6 24 3e ee d8 df 3d 8a 21 d7 bd
       0.09353073 0.16085179 0.10930048 -0.10504444
000180 0a 81 f0 3d 88 f4 23 3e 0c 5c 1d 3d 81 20 9c 3d
       0.11743362 0.1601125 0.03841786 0.07623387
000190 f9 d9 06 3d 66 6e 49 bd e5 3e 68 bd 1b e7 34 3b
       0.03292272 -0.04917755 -0.056700606 0.002760357
0001a0 33 17 ae bb 21 29 4a 3d a9 cc 1c 3d 0f 4c 9c bd
       -0.005312824 0.04935563 0.038281117 -0.076316945
0001b0 16 9b c6 bd 33 55 61 3d 92 e3 bb 3d a0 e8 a9 bd
       -0.09697549 0.055012893 0.09174265 -0.08296323
0001c0 55 f2 11 3e 4c a7 09 3d d8 c8 bc 3c 7c 42 e5 3c
       0.14252599 0.033606812 0.023044989 0.027985804
0001d0 80 59 25 bd 69 0e 95 3d 99 6c 05 be 96 36 35 bd
       -0.040368557 0.07278139 -0.13029708 -0.04424151
0001e0 64 d1 0d be d1 26 e3 bd 14 e3 09 3e 1f 76 f7 bd
       -0.13849407 -0.11091388 0.1346553 -0.12083077
0001f0 8a 44 c4 3d fa 53 32 3c 7e 89 af bd 67 e7 c1 3d
       0.09583385 0.010884279 -0.085711464 0.094679646
000200 1a c7 ab 3d 6e 47 fe bc e1 3a 2b 3c 80 0b c1 3d
       0.08387585 -0.03103992 0.01045105 0.094260216
000210 fc 85 1f bd 6f af 1e 3e 00 04 17 bc 32 0f 3a be
       -0.038946137 0.1549661 -0.009217262 -0.18169859
000220 00 c7 ea bc af e8 1f bc 6f 2a ef 3d 69 82 3a 3c
       -0.028659344 -0.009760066 0.116780154 0.011383631
000230 eb 8f 6d 3d 5a c8 01 3d e7 0f 85 bd e7 08 1b bd
       0.05799858 0.03168521 -0.06497174 -0.037850287
000240 8a 09 05 bc 8e 10 d0 3d 74 e2 64 be cb 52 f0 bd
       -0.00811995 0.101594076 -0.2235201 -0.117345415
000250 d5 17 97 3c 19 67 f2 3c b0 9e af bc 0a bd a6 3c
       0.018443981 0.029590176 -0.021437973 0.020353813
000260 80 6b ac bb a7 4b f0 bd 47 8d 4f 3e e0 98 15 3e
       -0.0052618384 -0.117331795 0.20268737 0.14609098
000270 4e dd 99 3d 04 ac cd 3b 67 95 c5 bd e8 37 d1 bd
       0.07512914 0.0062766094 -0.09647637 -0.102157414
000280 d2 8f 14 be 1f ae b0 3d 2d 8b d2 bc fa 0b 59 3d
       -0.14507988 0.08626961 -0.02570113 0.052989937
000290 4c 70 14 be b4 37 c1 bd 0c 7c aa bd 16 e1 af 3d
       -0.14495963 -0.09434453 -0.08324441 0.085878536
0002a0 56 b2 80 3d 84 4a b2 bd 12 88 cd bd b5 dd 31 be
       0.06284015 -0.08705619 -0.10035719 -0.17369731
0002b0 1a ee 15 3e 3e 34 b2 bd 32 96 bb 3a 49 b7 a7 bd
       0.1464161 -0.08701371 0.001431173 -0.08189256
0002c0 b4 6d 32 3e 98 ab 6a 3d fb ae d1 3d 0b 84 a6 3d
       0.17424661 0.05729255 0.10238453 0.08130654
0002d0 8e 99 af bd 3a 3c c9 bd ac f2 03 be b5 08 b6 3d
       -0.0857421 -0.098259404 -0.1288554 0.088883795
0002e0 55 d1 3d 3e f2 62 49 be a6 66 ad 3d ef 8a 76 bd
       0.18536885 -0.19666651 0.08466844 -0.06019109
0002f0 d0 11 8c bd 02 03 c2 bd 73 78 83 bc 83 50 39 bd
       -0.06839335 -0.0947323 -0.016048646 -0.045242798
000300 c8 bc a4 bd 54 96 95 bc f0 2d 0d bd 8c ab 38 3e
       -0.0804382 -0.018260159 -0.034467638 0.1803419
000310 13 11 20 3d ab 69 9e 3d d7 69 4a 3d 80 c7 0a be
       0.039078783 0.07734998 0.049417343 -0.13552666
000320 6e 9e a4 bc 17 52 82 bd cd 4c 79 bd ee 16 39 bc
       -0.020095076 -0.06363314 -0.06086426 -0.011296971
000330 30 4b a8 bc 75 34 7a bd 80 79 86 ba 46 f4 68 be
       -0.020543665 -0.061085183 -0.0010259598 -0.22749433
000340 f1 4d d4 3d 60 14 6e 3d b2 b5 ec bc 62 36 28 3e
       0.10366429 0.0581249 -0.028895233 0.16426995
000350 8e 55 f6 3d c2 d1 9c bd d2 74 bd 3d 41 75 bf bd
       0.12028037 -0.07657196 0.09250797 -0.09348536
000360 59 f0 40 be ec 29 a4 bd 05 c7 a2 bc c4 86 f6 bc
       -0.18841685 -0.080158085 -0.01987029 -0.030093558
000370 75 fb 21 bd 91 60 b4 3b d6 bb ea bd 88 c6 e2 bd
       -0.03954645 0.0055046757 -0.11461608 -0.11073023
000380 dc c8 e4 3d 95 27 00 3e 6e a6 f3 bd 5e 45 f3 bd
       0.111711234 0.125151 -0.11896978 -0.11878465
000390 54 ae d0 3d 9c bf ca bd ae 28 0b be ad 6d 2d 3d
       0.101895005 -0.09899828 -0.13589737 0.042340923
0003a0 bf a8 c1 3d 8b a0 0a 3d a7 16 72 3d 0e 06 b8 3d
       0.09456014 0.033844512 0.059103634 0.0898553
0003b0 6c a0 23 3e 98 75 27 3e 31 ff 22 bd 1d f1 d0 3d
       0.15979165 0.16353452 -0.03979415 0.10202239
0003c0 c0 d4 a4 bd 03 66 0d 3e a6 09 c3 bd dd 6e 10 3e
       -0.08048391 0.13808446 -0.09523325 0.14104791
0003d0 f2 bf e9 3d 09 77 37 be b7 80 ba bd fd 95 e0 3d
       0.11413564 -0.17916502 -0.09106582 0.10966108
0003e0 12 d0 89 bb 90 08 3e 3d d2 1f 5e bd 05 aa 11 bc
       -0.004205712 0.046394885 -0.054229565 -0.0088906335
0003f0 93 a9 1c 3e d0 9d 47 3d 4b 5d d6 3d 36 52 13 3d
       0.15299062 0.048734486 0.10467013 0.035967074

lstm.weight_hh_l0_reverse f4 [256, 64]
000000 df 44 7a bc ed 8d 22 3d b3 30 5f bc 55 31 75 bd
       -0.015275209 0.039686132 -0.013622451 -0.0598615
000010 ba e1 cc 3d 75 ae 08 bd 72 16 80 3c d7 01 1c 3b
       0.100039914 -0.0333695 0.015635703 0.0023804808
000020 22 44 d1 bd 31 03 25 3e 9a 03 10 be 09 55 0b be
       -0.102180734 0.16114499 -0.14063874 -0.13606657
000030 30 62 f8 3d bd f0 58 3c b6 f1 44 3d 76 48 b9 bc
       0.12128103 0.01324099 0.048082076 -0.02261756
000040 23 84 b3 3d 71 99 1d bd 8f 4a 04 be af 44 12 3d
       0.087654375 -0.03847641 -0.12919067 0.035710033
000050 ed 1e b0 bd 39 e5 02 3e a2 88 53 3e 9b a0 0c 3d
       -0.085996486 0.12782754 0.2065759 0.034332853
000060 71 2f 72 bd 74 cc d8 bd dc f9 85 3e 60 c4 6b bd
       -0.059127275 -0.10585871 0.2616719 -0.057560325
000070 3b 8c a8 bd 3d 4a 00 3e be 46 44 be 08 bd 0f be
       -0.08229872 0.1252832 -0.19167611 -0.14036953
000080 2f d5 16 3d a1 9a a3 3d 00 ba db 3d b1 e9 55 3d
       0.0368244 0.079884775 0.10728836 0.05222482
000090 38 78 d3 3d af 72 db 3d 89 11 f9 bc 8f 6f 91 bd
       0.10325664 0.107152335 -0.03040387 -0.07101356
0000a0 f5 52 cc 3d 32 7a 15 3d 5e 7b 1a be 98 85 58 3d
       0.0997676 0.036493488 -0.15086123 0.05286178
0000b0 5e 66 98 bd fd 56 e2 3d 4d ba cb bc c4 fc fb bc
       -0.074414 0.11051748 -0.024869109 -0.030760176
0000c0 c1 cf 48 bd ed 22 ac bd 90 13 b6 3d 6c c1 3c bd
       -0.049026255 -0.08405099 0.0889045 -0.0460829
0000d0 d0 3c 9d bd 52 e2 94 bd b0 87 ae 3d f7 8f 84 bd
       -0.07677615 -0.0726973 0.08521974 -0.064727716
0000e0 25 b8 20 be fb 55 b8 bc 83 9f 31 3e f3 b0 2d 3d
       -0.15695246 -0.022501936 0.17346005 0.04240508
0000f0 71 3b 0a bd 35 60 8b 3d d0 50 49 bd ed 53 84 bd
       -0.033748094 0.068054594 -0.049149334 -0.0646132
000100 5f 4c de 3d 75 08 01 3d ab 95 a7 3d d4 3b 4a bd
       0.108544104 0.031502206 0.08182844 -0.049373463
000110 17 bf e3 3b 58 04 ec bd 9f 62 74 3d b7 8e 91 bd
       0.00695027 -0.11524266 0.059664365 -0.07107299
000120 40 66 62 be c4 79 96 3d 46 89 d3 bb d2 b5 ba bb
       -0.22109318 0.07347444 -0.0064555733 -0.005697944
000130 a6 cf 83 ba b9 b7 7f bd 43 85 03 be 18 7d 3e 3e
       -0.0010056391 -0.06243107 -0.12843804 0.18602407
000140 03 bf 02 3c e6 44 87 bd 65 5d 0a 3e 16 ce d1 3d
       0.007980111 -0.06604938 0.1351219 0.10244386
000150 f9 de 45 bd 48 8b 7d 3d 2f aa f6 bc ba 93 28 3e
       -0.048308346 0.061900407 -0.030110447 0.16462603
000160 7b db ec 3d 35 f2 8f 3d 4d 82 8f 3d e7 db 1c 3c
       0.115653 0.07028619 0.07007275 0.009573913
000170 47 07 14 be 99 42 15 be 24 75 f3 3b 91 47 02 3e
       -0.14455901 -0.14576186 0.0074297357 0.12722613
000180 dd da b2 3d c7 c4 84 bd 03 53 86 3d f9 e3 85 3d
       0.08733151 -0.06482845 0.06558802 0.06537623
000190 63 60 f5 bd 00 66 09 be 2c 70 d9 bd cb f7 38 3e
       -0.11981275 -0.13417816 -0.10617098 0.18063276
0001a0 db 8f 29 bc 74 b3 1a bd d4 2a 42 3d 0c 22 99 3d
       -0.010349239 -0.037768796 0.047404125 0.07477197
0001b0 5d 04 35 3e 8f 50 c3 3c 7e ec 09 be 31 0e 15 3e
       0.17677446 0.023842124 -0.13469121 0.14556195
0001c0 f0 f8 d3 3d a4 bf 3e 3c 68 c0 0c 3b 4a 69 58 be
       0.103502154 0.01164237 0.0021476988 -0.21133915
0001d0 88 d4 54 3d 16 d4 d6 bd 54 71 15 3d 02 e8 bb 3d
       0.051960498 -0.10489671 0.03648503 0.09175111
0001e0 a5 d2 23 bd 09 0c a7 3c ec b8 5d be 14 3a ee 3d
       -0.03999581 0.020391481 -0.21652573 0.11632171
0001f0 82 2b 40 bd 6f 56 75 bd 68 73 b8 3d a6 77 49 bd
       -0.046916492 -0.059896883 0.09006387 -0.04918637
000200 9d d3 da 3d 87 8f 4b bd 97 81 88 3c 58 32 14 3d
       0.10684893 -0.049697425 0.016663356 0.036180824
000210 40 a4 8e bd 86 e6 4f bc c1 5a b1 bc 79 d1 17 3e
       -0.06964922 -0.012689238 -0.02164972 0.14826001
000220 75 c4 49 bd 25 04 a4 3c 71 a2 10 3e bb 9a c2 bd
       -0.04925962 0.020021508 0.14124466 -0.09502169
000230 89 cc d1 3d 9e 60 b2 3d b3 fe 26 be 13 77 d2 3d
       0.1024409 0.087098345 -0.16308098 0.10276618
000240 e6 14 d3 bc 3c 51 c8 bc 9d a3 ba bc ea a5 bf 3d
       -0.025766801 -0.024452798 -0.022783095 0.093578175
000250 df 54 f6 3c b5 ba ca 3c e9 3e f1 bd 20 37 e8 bc
       0.030069767 0.024747232 -0.11779577 -0.028346598
000260 69 15 ae bd 71 d2 03 3d 02 85 d1 bd e0 ee 87 3d
       -0.085001774 0.032183114 -0.10230447 0.06637359
000270 3f fb ae 3d 00 cc 11 3e 66 5d 46 be 63 86 03 bd
       0.08544015 0.14237976 -0.19371566 -0.032110583
000280 3e 81 3c 3e ee b4 8c 3d 7d 35 2a 3e d0 21 cb 3d
       0.18408677 0.06870447 0.16621967 0.099185586
000290 d8 fa 74 bd 51 11 e0 bd 41 46 78 3d 5f a3 7c bd
       -0.059809536 -0.10940803 0.060613874 -0.06167924
0002a0 1d 21 37 3c 65 75 8f 3d 68 41 f9 bc 88 1c 4e bc
       0.011177328 0.07004813 -0.030426696 -0.012580045
0002b0 67 6f 9c 3c 5f b0 4c 3d 67 42 bc bd 65 1a 74 bb
       0.01909609 0.049972888 -0.09192353 -0.0037247178
0002c0 f9 c6 81 bd 30 c6 f9 bd fe 64 d0 bc b7 26 6e bd
       -0.06336779 -0.121960044 -0.025438782 -0.05814239
0002d0 c2 c7 0f 3e e5 6d 21 3d 08 06 b5 bc 84 99 ba 3d
       0.14041045 0.039411444 -0.022097602 0.09111312
0002e0 9b c1 ad 3d a8 d4 8f bd af 42 16 bd 32 46 f6 3d
       0.08484193 -0.07022983 -0.03668469 0.120251074
0002f0 a1 4e 8c 3d 7f e2 1b 3e f3 57 36 be ce ef b0 3c
       0.06850935 0.1522312 -0.17806987 0.021598723
000300 a9 52 4f bc cd ba f0 bd b9 64 3b 3d eb 97 e3 3d
       -0.012653985 -0.117543794 0.045750353 0.111129604
000310 a8 ce 88 3d 47 75 56 be e5 4d 36 3e 01 65 ce bd
       0.066800416 -0.20943175 0.17803152 -0.10077859
000320 da 27 f7 bd 9a 45 08 be ed f3 ff bc 0e f6 db bc
       -0.12068148 -0.13307801 -0.031244243 -0.026850726
000330 49 8a 04 3d 4a ee 00 3d cd 06 12 be 2f 81 cf 3d
       0.03235844 0.03147725 -0.14260407 0.10132062
000340 12 24 24 be 0b 2e 0f 3e e5 98 dd 3d 32 92 bf 3d
       -0.16029385 0.13982408 0.10820178 0.093540564
000350 0f 84 2e 3d 6a 7c 32 be 7e ab f0 3d 69 27 e9 3b
       0.04260641 -0.17430273 0.117514595 0.0071152938
000360 08 c7 d8 ba 68 37 3c bd 2f b7 68 3d f7 58 ef bc
       -0.0016538808 -0.045951277 0.056815322 -0.029217226
000370 bb f9 f6 3d f5 d1 6c bd 0f e5 2f bd bb dc 7b 3d
       0.12059351 -0.057817418 -0.042943057 0.0614898
000380 19 aa 31 3e 07 9e f2 3c d7 99 08 3e cd bf 8f bd
       0.17350043 0.029616369 0.13339935 -0.07019005
000390 22 8a 16 be d3 66 1e 3d 19 c1 08 be 3f 76 2c bd
       -0.14701131 0.03867228 -0.13354911 -0.042104956
0003a0 70 f1 c7 bd 50 3f 20 3d 9f 81 fb 3d a9 96 fe 3d
       -0.097628474 0.03912288 0.12280583 0.1243108
0003b0 e8 72 59 3e 78 2f f6 bd f1 3d ae bc ee 15 e5 3c
       0.2123524 -0.12020773 -0.02126977 0.027964558
0003c0 2a 58 f8 3d a5 e7 d3 bc c9 64 ea bd 6f 40 3b be
       0.12126191 -0.025867293 -0.114450045 -0.18286298
0003d0 8d 75 06 be 65 17 a8 3b 43 8e 0f 3c 11 f4 aa 3d
       -0.1313078 0.005129742 0.008761945 0.08347333
0003e0 9a d0 dc 3d 1e 52 e7 bd 27 d3 28 3e 48 9e ff 3a
       0.10781975 -0.112949595 0.16486798 0.0019502128
0003f0 04 2f 94 bd 09 4b 6f be 63 0b e6 bc 04 c2 8b 3d
       -0.0723553 -0.23368467 -0.028081601 0.06824115

lstm.bias_ih_l0_reverse f4 [256]
000000 80 c4 da 3d 96 ca d1 bb 19 2e ce bc d3 c1 30 3d
       0.10682011 -0.006402324 -0.025168465 0.043153595
000010 22 51 60 3d dc d2 26 bc 72 9a 25 3e 6a c8 ab bc
       0.054764874 -0.010182109 0.16172197 -0.020969588
000020 74 31 51 3c c5 71 11 bd c3 a0 aa 3d 9f 63 17 3d
       0.012768138 -0.03550889 0.08331444 0.03696024
000030 83 6a 5f bc 3a 80 a4 3d 5e 42 d6 bd 39 b7 6e bb
       -0.013636234 0.0803227 -0.10461877 -0.0036425127
000040 da f2 86 bd 7d 95 5f bd ed 01 12 3d 98 68 c5 3d
       -0.06589289 -0.054585923 0.035646368 0.0963909
000050 59 9e b9 bd 71 a8 0c bc f3 00 ac 3c 5d 34 42 3c
       -0.090634055 -0.008585081 0.020996546 0.011853305
000060 62 82 47 3c 27 42 07 3e a6 e1 8d bc bb e4 07 be
       0.012177082 0.13208829 -0.017319512 -0.13270847
000070 6e ef 9d bd 55 cb 48 3b 73 e9 85 bb 4a 48 cc bc
       -0.07711683 0.0030638773 -0.004086667 -0.024936814
000080 f2 24 cd bc a3 dc 28 bd 31 25 87 bd 04 a0 7c bd
       -0.025042031 -0.04122604 -0.065988906 -0.06167604
000090 dc 91 61 3c ef e8 7a bd 15 1c 40 3b 9c 1d 86 bc
       0.013767686 -0.0612573 0.0029313613 -0.01637154
0000a0 4a 53 08 be a1 e4 51 bd 80 6f 2c 3d f6 c8 a7 3d
       -0.13313022 -0.05124343 0.042098522 0.08192627
0000b0 b7 38 fa bd 7c 01 55 3b 14 8a 0e 3e 40 2e 06 3e
       -0.12217849 0.0032502105 0.1391986 0.1310358
0000c0 13 4e 0e 3d 3b b4 b7 3d 5c b5 9b 3d 05 7e 7d bc
       0.034742426 0.08969923 0.07602951 -0.01547194
0000d0 5f d0 2c 3d bd 2a d2 3d cf e4 34 bd 1c 3e 3a bd
       0.042190906 0.10262058 -0.04416352 -0.04546939
0000e0 06 a4 c6 bc eb 5e d4 3d 37 59 76 bd c9 85 d8 bc
       -0.024248134 0.10369667 -0.060143676 -0.026430981
0000f0 d1 a2 ba bd 5e 30 12 be 80 3a 83 3b c1 66 01 be
       -0.09113086 -0.14276263 0.0040047765 -0.12636854
000100 10 a3 21 3d 48 be 71 3d f4 70 d4 3d 83 0e 3e bd
       0.03946215 0.059019357 0.103731066 -0.04640056
000110 0a 4a 1b 3e 16 4d 9e 3d 89 ea 5a bd 6c f1 3c bd
       0.15164962 0.07729547 -0.053446326 -0.046128675
000120 94 c0 b0 3d 8d f7 e9 bc 0c c5 16 bd df dd 82 bd
       0.08630481 -0.028560424 -0.036809012 -0.06389975
000130 c6 34 70 3d 02 e2 e0 3c 9b ea d6 3c 46 38 01 3e
       0.05864408 0.027451519 0.026234915 0.12619123
000140 04 c6 4f bd ec e7 dd bd 4a 62 b0 bd 66 b4 89 3b
       -0.05072595 -0.10835251 -0.08612497 0.0042024134
000150 12 aa 0b 3d 8f 93 ff 3c a8 f3 81 bd 57 37 ea bc
       0.03409774 0.031198291 -0.06345302 -0.028590841
000160 84 e8 77 bd 80 45 9e bd 5e 21 c3 3c c4 05 0d be
       -0.06052448 -0.077281 0.023819622 -0.1377173
000170 a5 53 b9 bc 91 83 e6 bd 6e 14 af 3d ee 04 9a bd
       -0.022622893 -0.11255563 0.085488185 -0.075204715
000180 53 39 e4 3d e3 0b ae bd a9 ec f4 3c f7 a8 6f bd
       0.11143746 -0.08498361 0.029898005 -0.058510747
000190 97 ab 0a 3d b0 2a 37 3e e4 5a 30 3d 33 f6 b9 bc
       0.033855047 0.17887378 0.04305543 -0.022700405
0001a0 2d 4f d3 bd 4c 25 27 3d 64 f5 4a 3d d8 b3 f2 bc
       -0.10317836 0.040807053 0.04955043 -0.029626772
0001b0 aa 97 44 bd a8 65 9a bc a0 ac 45 3d 81 01 f7 3d
       -0.0479962 -0.018847302 0.04826033 0.12060834
0001c0 40 3c ff bd a0 9a ff bd f7 df ad 3d 0c 6f 88 bd
       -0.12462664 -0.12480664 0.084899835 -0.066618055
0001d0 f4 4d c1 bd 5f 2c 4a 3b d3 b0 74 bd 9a 7c b9 bd
       -0.094386965 0.00308492 -0.059738945 -0.09056969
0001e0 1a f6 f9 3c a1 76 00 3e ac f0 e1 3c 81 85 2f 3d
       0.030512858 0.12545253 0.027580582 0.04285193
0001f0 b1 66 13 3c 54 77 0c bd 30 e8 bf bc c6 c1 9a bd
       0.0089966515 -0.034293488 -0.023426145 -0.075564906
000200 4a eb dc bd fc 7f c6 bd cb aa 6e bd 79 5b c7 3c
       -0.10787065 -0.0969238 -0.05826835 0.02433561
000210 1f 49 df bd b5 0c f2 bc 22 82 95 3d 20 eb f3 bd
       -0.109026186 -0.029547075 0.073002115 -0.11910081
000220 87 fd 70 3d 2c 4c f6 bd b3 14 b3 3d f4 69 1a 3e
       0.058835533 -0.120262474 0.087441824 0.1507948
000230 30 0b ab bd 67 e6 9d 3d fa fa 96 3c c4 e1 19 bd
       -0.08351743 0.077099614 0.018430222 -0.037568823
000240 7c 70 52 3d 57 2f 05 be 52 16 b2 bd 15 5b fa 3a
       0.051376805 -0.1300634 -0.086956635 0.0019100631
000250 2c e8 c8 3d 9d e8 4f bd d2 4a e0 3b 07 2e 86 bc
       0.09809908 -0.050758947 0.006844857 -0.01637937
000260 55 14 25 3e 26 3a 07 3e 76 64 21 bc c3 25 94 3d
       0.16121037 0.13205776 -0.009850612 0.07233765
000270 b4 a0 ae ba 6d ec 5b 3d ac 8f 2a 3d 5d 54 df bc
       -0.001332304 0.05369227 0.041640922 -0.027261907
000280 0b b1 7c 3d 5b fb b0 3c 54 50 27 3d a3 74 c5 ba
       0.06169228 0.02160423 0.04084809 -0.0015064668
000290 19 3e 65 bd 20 77 ed bd 99 8a 72 bd 21 aa d4 bd
       -0.055967424 -0.11594987 -0.05921421 -0.10384012
0002a0 02 50 8f 3c 1a e3 fb 3d bd 91 86 3b 5a 27 d5 3d
       0.017494205 0.122991756 0.004106729 0.10407896
0002b0 5a fe 88 bd 7d 5c b1 bd cc 69 d4 bd 35 7e cf bd
       -0.06689139 -0.08660219 -0.10371742 -0.10131494
0002c0 f2 1f b9 bc bb 91 cd bc 84 8c 9e bd f7 b2 f3 3d
       -0.02259824 -0.025093904 -0.07741645 0.11899369
0002d0 bd d3 23 be 7b b3 a9 3c fa ee 80 3d 7b d6 9b 3d
       -0.1599874 0.020715466 0.06295581 0.07609268
0002e0 81 a3 90 3c 79 c5 a5 bd 80 50 cc bc 83 07 f0 3d
       0.01765609 -0.080943055 -0.02494073 0.11720183
0002f0 76 95 1b bd 84 a9 58 3d fe 8c 14 bd 9e 71 d6 3d
       -0.037984334 0.052896038 -0.036267273 0.104708895
000300 8c 17 26 3d da 3f d9 bd b7 b2 09 be 73 c6 de bc
       0.0405498 -0.10607882 -0.1344708 -0.027194237
000310 a9 e3 d0 3d 16 d0 cb 3d bb b3 00 3c 5a 13 50 3d
       0.10199673 0.099517986 0.007855351 0.050799705
000320 6a 3f 22 bd 83 00 e0 3d 38 19 a4 bd e6 9a 61 3d
       -0.039611258 0.109375976 -0.080126226 0.055079363
000330 d6 ee c4 3d 69 53 ab bd 5e da ca bd 05 11 20 bc
       0.09615867 -0.083655186 -0.099049315 -0.009769683
000340 37 b5 6d bd 7c 1e 04 bd dd 09 c0 bd e2 2c 10 bd
       -0.058034148 -0.032255635 -0.09376881 -0.035199054
000350 29 6e 69 bd 81 f9 8d 3d f4 30 99 bd b1 93 b0 bd
       -0.056989823 0.06932355 -0.0748004 -0.0862192
000360 39 32 f6 3d 64 fe ab 3d dd 50 05 3e c0 ad d2 bd
       0.12021298 0.083981305 0.13019128 -0.102870464
000370 42 5d 04 bd 66 9d 40 bd e8 4e de bd 2a 2e 85 3d
       -0.0323155 -0.047025107 -0.10854894 0.06502946
000380 b6 34 94 3d ca d2 11 3c cc 5c 95 bd 2f 0d 9a bc
       0.07236616 0.008900354 -0.0729309 -0.018805115
000390 82 0e b3 3d f8 90 a0 3c 89 bc a8 bc ea f6 8d bd
       0.087430015 0.019600376 -0.020597713 -0.06931861
0003a0 bc d2 34 bd 9e ae c8 bd f2 4c 3e bd d9 e6 2a 3e
       -0.044146284 -0.097989306 -0.0464601 0.16689624
0003b0 04 f5 86 3d e1 bf dc bd 78 28 f6 3d 66 75 25 bc
       0.06589702 -0.107787855 0.120194376 -0.010098791
0003c0 6c 99 c8 bc cb c3 e0 bd 45 b4 a2 bc 71 4f 51 bc
       -0.02448722 -0.109748445 -0.01986135 -0.012775288
0003d0 5d 98 68 3d a2 57 39 bd 45 2a f1 bd 70 e7 c7 bc
       0.05678593 -0.04524959 -0.117756404 -0.02440235
0003e0 d3 fa 81 3c 30 ef 38 3e ee 15 6f bd c8 77 5e 3d
       0.015866673 0.18059993 -0.058370523 0.05431345
0003f0 0a 88 66 bd ef 22 99 3d 0e fc 03 3e a4 ae 1a 3d
       -0.05628208 0.07477366 0.1288912 0.037764207
